model_data.pth (torch, 7255 bytes, 6 tensors)

l1.weight f4 [8, 90]
000000 02 be bf bd 9f 1a 94 bd 29 5a 5b 3e 9f 31 fc 3e
       -0.09362413 -0.0723164 0.21421112 0.49256608
000010 86 b4 4d 3f 53 ea 2d bc a7 8c 11 3f ff 26 83 3f
       0.8035358 -0.010614949 0.56855243 1.0246276
000020 bd 30 5a 3e 4e fd f1 3e b0 09 02 3f 1b 16 68 3d
       0.21307655 0.4726357 0.5079603 0.056661706
000030 45 2f 55 3f 0a fc 63 3f 2d 94 9a be 92 a8 3a bd
       0.8327525 0.89056456 -0.30191174 -0.045570917
000040 bb ab 36 3e 67 b9 3f 3f 2a f2 06 3f 5d ab dd 3e
       0.17838947 0.74892277 0.52713263 0.43294802
000050 0a ba 80 3f 32 a4 3a be 01 44 31 3f 87 db 11 be
       1.0056775 -0.18226698 0.6924439 -0.142439
000060 83 fc 2d 3f 54 52 0e 3f 09 51 1f 3f 47 73 e5 3e
       0.6796343 0.5559437 0.62233025 0.44814512
000070 86 fc 1b 3e 3b 38 0f be 31 7e eb bd 5d 32 a0 3f
       0.15233049 -0.13986294 -0.114986785 1.251537
000080 52 12 6e bf 5c 7c 11 3e df e3 1d 3e 63 9d 01 3d
       -0.92996705 0.14207596 0.15418957 0.031644236
000090 4a 19 4b 3f 6c 92 34 3f 3a e2 57 be fe 88 57 be
       0.79335463 0.7053592 -0.21082392 -0.21048352
0000a0 a0 99 a5 3b a2 1a b9 be 38 40 a8 3e ec 3c 0c bf
       0.005053714 -0.36153132 0.32861495 -0.5478046
0000b0 c5 4f 50 3f d3 ca 29 3f 33 bc fd be fe af 71 be
       0.8137172 0.6632511 -0.49557647 -0.23602292
0000c0 ba 32 fc bd c7 da 73 be b2 a0 1e 3f d2 71 29 3f
       -0.12314363 -0.23813926 0.6196395 0.661893
0000d0 c0 f3 c8 3e be 45 40 3f ae 90 b0 be 0b 42 55 bf
       0.39248466 0.7510642 -0.34485382 -0.833039
0000e0 1c 27 1a 3f 69 7d 1a 3f f8 cc 16 3f 4f 3f 10 3f
       0.60215926 0.6034761 0.5890651 0.563466
0000f0 03 1c 8f 3e 15 e9 07 3f 0f a1 62 bf 64 ea 81 be
       0.2795106 0.5309003 -0.88527006 -0.25374138
000100 3f cf 29 3f 9a fc 5d 3e ac a4 e2 3e db 99 74 3e
       0.6633186 0.21678391 0.4426626 0.23886816
000110 36 fb 06 3f be 85 51 3e ef 12 f7 3e ac 39 fd 3e
       0.5272707 0.20461175 0.48256633 0.49458063
000120 15 41 55 bf 21 8b 5a be c5 10 82 3c 1b c8 5c be
       -0.8330243 -0.21342136 0.015877137 -0.21560709
000130 43 9b eb 3e 79 2e 5c 3e 01 ad 82 3f 3a 53 04 3d
       0.46016893 0.21502103 1.0209047 0.032305934
000140 85 3e 75 3f 7f 71 eb 3c 38 c0 3f bf f2 ee 5c bf
       0.9579852 0.028740643 -0.7490268 -0.863021
000150 82 95 4c bf 1c 18 8c bf 18 58 4f 3d 87 67 20 3f
       -0.7991563 -1.0944858 0.050621122 0.6265797
000160 0b 29 60 3f 76 d4 b3 3e 4f 20 fd 3e 68 07 9b 3e
       0.87562627 0.35123032 0.49438712 0.30279088
000170 16 cc c2 3e 62 76 dd 3e a3 cc e6 3d 08 e2 22 3f
       0.3804633 0.4325438 0.112695 0.63626146
000180 ef 18 34 3f d0 1b 45 bf 45 4f a4 be 8d 6a d4 3e
       0.70350546 -0.76995564 -0.32091728 0.41487542
000190 16 92 e2 be 65 6b 97 3e 20 37 5d be 01 7e 89 be
       -0.4425208 0.29574123 -0.2160306 -0.26853946
0001a0 bd c8 86 3c a5 6d 64 3f ec 5f 0f 3f 06 49 16 3f
       0.016453141 0.89229804 0.5600574 0.58705175
0001b0 11 df fd 3e 3f b2 f4 3e 3a ac 4b bf 35 96 08 bc
       0.4958425 0.4779224 -0.7955967 -0.008336593
0001c0 dc 98 26 3f 9a 58 d5 be 61 4e 33 3f 65 83 3f 3f
       0.65076995 -0.4166916 0.7004147 0.7480987
0001d0 a0 63 1a 3f 44 4a 1d 3f 28 14 1a 3e 9f e9 7d 3f
       0.60308266 0.61441445 0.15046751 0.991846
0001e0 34 9e 12 3e e3 6b 38 3f 08 06 a1 be 45 9e e0 3f
       0.14318162 0.7203962 -0.31449914 1.75483
0001f0 eb cc 4c be fe d5 93 3f 54 ba d5 3e 7e ce ae be
       -0.20000045 1.154968 0.4174372 -0.34141916
000200 51 4a 09 bf bd d1 65 be 10 59 1b bc cd 72 bb be
       -0.5362902 -0.2244329 -0.009481683 -0.36611024
000210 93 c4 cd 3e ee 87 34 3f 4b aa c0 3f 88 b1 26 3f
       0.40189037 0.7051991 1.5051969 0.6511464
000220 07 df 28 3f 0f d8 a9 be 3f 83 e3 bd f1 6d 36 b9
       0.6596531 -0.33172652 -0.111090176 -0.00017397829
000230 fd 52 cb be ef 5c 52 3f bb c5 45 bf 87 90 4a bf
       -0.39711753 0.82173055 -0.7725484 -0.7912678
000240 ea e1 6a 3f 97 27 ba 3f 2d 30 8a 3d ee 5d 00 bd
       0.9175097 1.4543332 0.0674747 -0.03133958
000250 e5 11 24 be 67 57 08 3f d1 db ec be d2 d1 d6 bd
       -0.16022451 0.53258365 -0.46261457 -0.10489239
000260 89 c7 95 bf 39 e0 8c 3f 79 e6 8b be 8c db 7d 3e
       -1.1701518 1.1005927 -0.27324274 0.24790782
000270 a3 70 33 3e b8 c2 8e 3e 08 64 03 3f 02 18 fe 3e
       0.17523436 0.27882934 0.5132451 0.49627692
000280 bc d4 60 3f 8d 15 a7 3e d7 25 1d bf 78 67 3f bf
       0.87824607 0.3263363 -0.61385864 -0.74767256
000290 78 a8 c3 be 34 7f 7d be 00 99 e9 3e 26 5b b8 3e
       -0.3821447 -0.24755555 0.45624542 0.3600704
0002a0 e3 ae 61 3f 62 93 b5 be d4 85 3e bf a2 6e 19 3f
       0.8815748 -0.35464007 -0.74422956 0.5993444
0002b0 c4 45 ab be d4 4c cf bd 40 ee 39 bf bc 1b 53 bf
       -0.33451664 -0.10122076 -0.72629166 -0.82464194
0002c0 36 ee fb be 00 34 2e 3f 83 ba 36 be e5 bd 8d be
       -0.49205178 0.68048096 -0.17844586 -0.2768394
0002d0 af 55 50 bc 09 60 bb bd a4 c2 16 3f 08 ca b0 be
       -0.012715741 -0.091491766 0.5889075 -0.34529138
0002e0 8e 51 7f bd 8a 32 a1 bd 57 93 27 3f 01 28 4f 3f
       -0.062333636 -0.07870968 0.654592 0.80920416
0002f0 54 1c 1e 3f ff e4 b3 be 5d 95 84 3f cb ac 42 3e
       0.61761975 -0.35135648 1.0358082 0.19011228
000300 74 e4 4b 3f a1 e2 cb 3e 61 ac cd 3e 3f 92 1b 3e
       0.79645467 0.39821342 0.40170577 0.15192507
000310 e6 87 b8 be 02 a9 3e 3f 2f 8d 9a be f4 cc 94 be
       -0.36041182 0.74476635 -0.3018584 -0.29062617
000320 08 93 43 3f ec 0f 01 be 8c 60 21 bf 97 29 3c be
       0.76396227 -0.1260373 -0.63037944 -0.1837524
000330 c0 04 24 bf 71 3a 24 bf a6 60 23 bf 1f d9 37 3d
       -0.6406975 -0.64151675 -0.6381935 0.044884797
000340 e9 29 65 3e 71 fa e3 be 4c 8b 43 3f 2c 73 8e 3f
       0.22379269 -0.4452701 0.76384425 1.1128898
000350 62 4e c8 3f 55 ce 2e 3f 35 b2 25 3f 8a 8d 20 3d
       1.564892 0.6828359 0.6472505 0.039197482
000360 25 ac c5 3e 4a 30 ef 3e 86 be ae bd 05 a3 54 be
       0.38607898 0.4671653 -0.08532433 -0.20765312
000370 38 ec b6 3d 60 e6 8f be ac 50 7e 3e 94 ba 0f bf
       0.08931774 -0.2810545 0.24835461 -0.5614407
000380 c1 fe 81 bf 3a cb f0 be 4b 79 9c 3e 3a 29 88 bd
       -1.015587 -0.4703005 0.3056129 -0.06648488
000390 21 fb 75 be ed 89 9d 3e f8 97 2d 3f 79 72 2a bf
       -0.2402158 0.30769292 0.6781001 -0.6658092
0003a0 9a c5 15 bf 39 00 5d bf 06 c4 29 be 9c 78 97 3f
       -0.5850464 -0.86328465 -0.16578683 1.1833682
0003b0 a3 4b 9e bd 70 33 ac bc 4a 38 18 bf 18 f0 99 be
       -0.0772927 -0.021020621 -0.5946089 -0.3006599
0003c0 34 fc 4f 3e 76 fe b1 3f 27 0e 9b 3f 77 d4 7a 3d
       0.20311052 1.390578 1.2113694 0.06123778
0003d0 ca e6 0c 3f 9e 11 3d 3e bb 7a e5 3e 09 5c 14 bd
       0.55039656 0.18463752 0.44820198 -0.036220584
0003e0 6f 22 eb be 4e 22 0b 3f 44 8a 5e 3f e4 46 c8 3e
       -0.45924708 0.5434922 0.86929727 0.39116585
0003f0 76 89 2e bf 57 b1 8b be f4 37 37 be 01 df 67 be
       -0.681785 -0.27283737 -0.17892438 -0.22643663

l1.bias f4 [8]
000000 b7 cf 91 3f 1f 43 49 3f f0 03 23 3f 10 c6 01 3f
       1.1391515 0.78618044 0.63677883 0.50692844
000010 d2 b5 1d 3f 22 4e 1b 3f dd 28 0f 3f 1d 8b 88 3f
       0.6160556 0.60666096 0.5592173 1.0667454

l2.weight f4 [8, 8]
000000 8f 89 33 3f 33 4c 9d bf 2e 82 cf 3f 2f 07 fe be
       0.7013177 -1.2288879 1.6211603 -0.49614856
000010 ad c7 b9 3f ba d4 05 bf 7e 7d d0 3f ed e7 76 3f
       1.4514061 -0.5227772 1.6288297 0.9644764
000020 a2 67 bd 3f 19 68 cd 3f 93 72 45 3f 4d ed 50 bf
       1.4797251 1.6047393 0.7712795 -0.8161209
000030 39 b8 63 bf b1 59 72 3e 19 c6 17 3f 59 4c ec be
       -0.88952976 0.23667027 0.5928665 -0.46152
000040 3c 2c 95 3f 83 11 92 3f 34 6d 1a bf 0b 52 10 3f
       1.1654124 1.1411594 -0.6032288 0.5637519
000050 f2 e9 d7 3f dd 54 28 bd eb 8c 7f 3e aa 8a 70 bf
       1.686827 -0.041096557 0.249561 -0.93961585
000060 db 6e 47 3f da be e6 3e b8 9d 48 be a5 6b 73 3f
       0.7790353 0.45067483 -0.19591415 0.9508613
000070 8b f6 77 3f 18 91 c4 be 3c c4 c9 bf d6 8d b3 3f
       0.9686057 -0.38391948 -1.5763011 1.402766
000080 07 97 88 bf f8 d9 80 3f 9d a9 4c 3f cf bf f9 3f
       -1.067109 1.0066519 0.7994631 1.951166
000090 38 25 ce be 49 d6 17 bf e2 4e 98 3f 88 e1 03 3f
       -0.4026277 -0.5931135 1.1899073 0.5151601
0000a0 47 a1 32 bf b6 2a 1b 3f 1f fe 96 be fd b3 c0 be
       -0.6977734 0.60612047 -0.29490754 -0.3763732
0000b0 bc d7 93 3f 14 0a f9 3f 81 28 d5 3e 35 e0 fd 3e
       1.1550212 1.9456201 0.41632465 0.4958512
0000c0 54 30 b6 3e 4a 5b e7 3e 84 39 33 bd b5 a7 8f 3e
       0.35583746 0.45186836 -0.043756023 0.28057638
0000d0 27 9e c7 bf b0 2f 93 3c f8 d8 22 be a0 4e 05 40
       -1.5595139 0.017967075 -0.1590308 2.082924
0000e0 5f 71 27 bf 40 9c 62 3f 28 2a d2 3f fa 3b 2b 3f
       -0.65407366 0.8851967 1.6419115 0.6688839
0000f0 d3 70 54 3f 1c 81 a0 bd e5 67 04 3f fa fa 82 be
       0.82984656 -0.07837126 0.5172103 -0.25582105

l2.bias f4 [8]
000000 1e 95 9b 3f 08 2a c6 3e e5 bc d4 3e 6e 1a 23 3f
       1.2154882 0.38703942 0.41550365 0.63712204
000010 89 dd bc 3e 8d df 9e 3d 73 c4 2c 3f 76 12 14 bf
       0.36887768 0.07757483 0.6748726 -0.5784067

l3.weight f4 [20, 8]
000000 c1 60 ee 3e 00 7d 10 be 79 6e cf 3d 54 bf 18 3e
       0.46558192 -0.14110184 0.10128493 0.14916736
000010 20 67 af bf 8e 25 b3 3b b9 cf 9d bf 48 de 1c be
       -1.3703346 0.0054671234 -1.2329017 -0.15319169
000020 98 c8 71 3f 90 5a 10 3f 69 21 bb bf 52 e7 83 be
       0.94446707 0.5638819 -1.4619571 -0.2576242
000030 ff 6b 6f bf 7a 2b 11 c0 1f b9 3b 3f 3b 54 05 c0
       -0.93524164 -2.2682786 0.7332935 -2.083266
000040 56 d1 74 bf 09 e4 8e 3e 05 87 fb 3e 04 67 4c 3f
       -0.9563192 0.27908352 0.4912645 0.7984469
000050 1f 83 96 bd db 47 00 c0 39 cf 5f 3f fb 5b 04 c0
       -0.07349228 -2.0043857 0.8742557 -2.068114
000060 86 1f a2 3e 0c 97 6d 3f f4 0e 1b 3e f9 0f ca bf
       0.31664675 0.92808604 0.15142423 -1.5786124
000070 8b ed c8 bd 11 93 24 c0 a7 17 8b be 66 13 d3 bc
       -0.09810933 -2.5714762 -0.27166483 -0.025766086
000080 38 d2 23 3f 75 f6 43 be c6 8e 75 bf 5b 11 11 c0
       0.63992643 -0.19136985 -0.9592098 -2.2666843
000090 24 3d ca 3e fc c6 e3 be de 49 4c bf 79 39 23 3f
       0.39499772 -0.4448775 -0.7980021 0.6375957
0000a0 03 a7 00 bf 8b 91 af 3e 43 1e 01 3f 1d 9c d4 bf
       -0.5025484 0.34290728 0.504368 -1.6610142
0000b0 49 58 c2 bd d2 77 4f 3e 12 19 86 bf 34 76 31 3e
       -0.09489495 0.20260552 -1.0476401 0.17330247
0000c0 18 88 8d bf 20 4b 40 3f 62 8d 80 3b af 02 a2 bf
       -1.1057158 0.7511463 0.003923104 -1.2657069
0000d0 2f ad b9 be c5 ad d4 3d 07 4d 52 3f 7c 94 78 bf
       -0.3626494 0.103847064 0.82148784 -0.9710157
0000e0 92 8b 1c c0 d0 cd dc 3d e6 6f 0f 3f 75 01 5b 3e
       -2.4460187 0.10781443 0.5603012 0.21387275
0000f0 0f a5 3f bf df a4 cd 3e 14 a3 df bf 99 59 66 3e
       -0.74861234 0.4016485 -1.7471642 0.22495116
000100 56 91 ab 3e fc cc 33 bf e8 62 c1 bf 01 dd d3 bd
       0.3350932 -0.70234656 -1.5108309 -0.103448875
000110 89 b9 59 bf 6e 17 56 3f 01 77 48 3f 41 a3 39 c0
       -0.8504873 0.836295 0.78306586 -2.9005892
000120 52 8f 95 bf ee 22 20 3f 90 43 5b 3f 05 26 35 3f
       -1.1684363 0.625533 0.8564997 0.7076114
000130 2c c8 f1 bf 32 1a c5 be 62 df 7e be d4 57 ad bf
       -1.8889213 -0.38496548 -0.24889901 -1.3542428
000140 28 99 b0 bd 40 e1 8c 3d f0 91 87 bf 62 ea fe be
       -0.08622962 0.068789005 -1.0591412 -0.49788195
000150 56 e1 bd 3e 3a 76 1c bf 37 b2 fb 3e 21 c8 45 3e
       0.3708598 -0.611179 0.49159405 0.19314624
000160 f3 f0 5d 3f 33 67 1f be 7c 63 2b 3f 8a b0 39 c0
       0.86695784 -0.15566711 0.66948676 -2.9014
000170 fc eb ce bf 35 2b e9 3e 23 03 b7 be 02 4d 04 c0
       -1.6165767 0.45540777 -0.3574458 -2.0672002
000180 ed 03 b9 be 71 a3 40 bf 0d cf 3e 3e b3 4e a9 3e
       -0.36135808 -0.7524939 0.18633671 0.33067855
000190 28 51 26 3c f2 b0 35 be 4a 71 11 bd a2 d2 f7 3c
       0.010151185 -0.1774328 -0.03550843 0.030251805
0001a0 cb 38 82 bf 03 08 ff bf 97 ac bf bf 61 91 7c 3e
       -1.0173582 -1.992432 -1.4974545 0.24664833
0001b0 62 ec b0 3e b8 e6 c8 3e 35 ab 11 3f 15 29 eb 3d
       0.34555346 0.39238524 0.56901866 0.11482445
0001c0 17 4a 1f c0 6c d9 b8 bf aa 60 21 3f f5 0f e2 bb
       -2.488897 -1.4441352 0.6303812 -0.006898875
0001d0 e9 86 d0 3e d2 c7 34 3e ec 06 94 bf b4 cb f7 3e
       0.40727928 0.1765435 -1.1564612 0.483976
0001e0 64 33 98 3d 75 b6 ff bf e8 16 2a c0 5e f6 5f 3f
       0.07431677 -1.9977556 -2.657648 0.874853
0001f0 dd 92 45 3f f2 c4 27 c0 8b 4a 59 3f b3 dd 09 c0
       0.7717722 -2.6213956 0.8487937 -2.1541564
000200 82 fa cc 3e 0b 99 65 bf 89 92 f7 3e fc 97 66 3f
       0.40034872 -0.8968665 0.48353985 0.9007566
000210 0a 61 06 c0 a0 07 04 bf 34 59 52 bd 5b c8 4a c0
       -2.0996728 -0.51574135 -0.051354602 -3.1684787
000220 fb f2 47 3f d8 20 04 c0 77 d8 a1 bf 88 78 2d 3f
       0.78105134 -2.0645046 -1.2644185 0.6776204
000230 05 63 91 be 61 66 d9 bf e2 45 31 3d c4 1d a1 3e
       -0.28395858 -1.6984369 0.043279536 0.31468022
000240 8b 80 01 3f 0e e0 1d c0 c0 37 ae 3e 44 23 be bf
       0.50586766 -2.4668002 0.3402691 -1.4854512
000250 de 49 4f 3f 95 04 ae bf d6 75 09 c0 4f cb 14 3f
       0.8097209 -1.3595148 -2.1478171 0.58122724
000260 59 e7 20 3f dc 50 31 c0 12 7c 50 3d 3e 07 6e bf
       0.6285301 -2.7705603 0.050899573 -0.929798
000270 05 fd 53 3e 0e e5 39 3f db de 53 bf b0 0b fa be
       0.20701988 0.72615135 -0.82761925 -0.48837042

l3.bias f4 [20]
000000 ac e2 5a 3d d7 d6 9c 3c 1b 70 27 be 6f 29 31 3c
       0.053438827 0.019145412 -0.16351359 0.010813101
000010 36 a0 b6 3d d9 65 3f 3d 3c 6d 89 bc c3 01 9c bd
       0.089172766 0.04672799 -0.01677572 -0.076175235
000020 82 13 bd 3e 7c dc 38 bb b3 8d 5b be ae 03 12 3d
       0.36928946 -0.002820759 -0.21440773 0.03564804
000030 c9 a6 70 3e e5 8e 0d bf e3 64 bc bd 09 e3 94 3e
       0.23501123 -0.55296165 -0.0919893 0.29079464
000040 4f b1 ca bc 59 df db bc f0 96 f2 bb 41 ee 95 3e
       -0.02474275 -0.026839899 -0.007403247 0.29283336
