model_data.pth (torch, 5335 bytes, 6 tensors)

l1.weight f4 [8, 61]
-0.07004885 0.20184706 0.6217366 0.65292823 0.1524857 0.40760624 0.05367509 0.005094693
0.45050707 0.19747366 -0.062053017 -0.16811702 0.30719775 -0.696698 0.08187154 0.4045874
0.6270863 0.6153685 0.53023136 0.23084217 1.0273764 0.8026635 -0.17837845 0.77788
0.5850238 0.115943015 0.07500518 0.11851692 0.0001867835 0.18855728 0.19648965 -0.08183725
-0.064042024 -0.12414908 0.2274401 -0.09429583 0.23231775 0.2702781 0.12677668 0.23983392
0.32030016 -0.46955326 0.5097687 0.27401137 0.38061583 0.20182462 0.10356096 -0.022707036
0.119364016 -0.60274875 -0.5680525 -0.3897174 0.22769798 0.42164028 -0.113791935 -0.019774929
-0.298252 -0.11051007 -0.6969103 -0.28598535 0.047362875 0.90415823 -0.09541663 -0.20011607
-0.12702468 -0.17625295 -0.4634074 -0.24208745 0.2981712 -0.056546982 -0.11048141 0.17179298
0.26618347 -0.515829 0.68636537 0.7818845 0.3078269 0.4158568 -0.18490593 -0.4634317
0.26418698 0.84654444 -0.036584537 0.58676493 -0.13879518 -0.377895 0.20942299 0.1444504
-0.07232789 0.861103 -0.65051347 -0.11585078 -0.40669167 0.6179036 0.36608875 -0.44328108
0.4253191 0.023195675 0.5371962 -0.15313713 0.27701005 0.43088296 -0.09238793 0.48566666
-0.32888398 0.2561509 0.095424674 0.8149626 0.1385827 0.6225703 0.6691003 0.87079567
0.5142425 0.29401317 -0.15690643 0.2649481 -0.21320549 0.10060866 0.091421045 0.7911746
0.41159678 0.30941224 -0.30874744 0.13940132 0.32352263 0.73111856 0.13935043 0.6981482
0.04113485 0.18524218 0.39668 0.29275143 -0.22633342 0.011053421 0.455122 -0.24695948
-0.32586157 -0.12227574 -0.12456224 0.5708036 0.68044144 -0.086713925 -0.6402941 0.66953486
-0.2511885 0.8465154 0.6611412 0.37742233 -0.18190505 -0.16072322 -0.2641282 0.30366915
0.28629118 0.53203535 -0.25103852 -0.35586008 0.21625027 0.28993866 -0.021048473 0.00041972744
-0.17960759 -0.17315382 -0.0056792223 0.3249233 -0.12842123 0.31533116 0.00914421 0.0019847113
-0.24701586 -0.060436804 -0.24436884 -0.26503342 -0.43290412 -0.30650553 -0.15364635 0.3601915
-0.019951385 0.14940424 -0.008508446 -0.06271093 -0.5349754 -0.41123632 0.25419 0.10972418
-0.037142698 0.53160024 0.44505164 0.09526735 -0.11435576 0.080997154 0.15005836 0.57972956
0.1667521 0.15493593 0.13830984 -0.4189168 -0.30499527 -0.28069377 -0.026745738 -0.27374917
0.49903578 0.0038164665 -0.15918955 -0.69558704 0.6560902 0.6084914 0.6259716 0.66909057
0.18181048 -0.05954427 -0.60511553 -0.7222861 -0.12651297 -0.04055768 -0.50380325 -0.7147759
0.27604046 -0.13507052 0.45866373 -0.5408381 -0.3120857 -0.29306155 -0.07492497 -0.1726917
-0.016440988 -0.27376112 -0.015346333 -0.03223482 0.0673978 -0.2620367 0.17006965 -0.37711126
0.30920297 0.67485565 0.57151324 0.012455886 0.36276865 0.2088751 -0.17792709 -0.01935205
-0.13804908 0.60366124 0.39663178 0.4191089 0.16004828 0.5005171 -0.33187002 -0.6186316
0.40767828 0.8127048 0.24671842 0.14724669 -0.31193832 0.5085019 0.2942454 0.17719142
00000000: c575 8fbd ffb0 4e3e 212a 1f3f 4e26 273f
00000010: 3625 1c3e c4b1 d03e 69da 5b3d 62f1 a63b
00000020: dda8 e63e 8936 4a3e 4e2b 7ebd de26 2cbe
00000030: 0649 9d3e cd5a 32bf 44ac a73d 1426 cf3e
00000040: ba88 203f ca88 1d3f 3ebd 073f e461 6c3e
00000050: 1281 833f 5b7b 4d3f d7a8 36be 2523 473f
00000060: 1fc4 153f 8873 ed3d 519c 993d 00b9 f23d
00000070: 50db 4339 2915 413e 9534 493e 4a9a a7bd
00000080: 7728 83bd df41 febd 0fe6 683e 2c1e c1bd
00000090: b4e4 6d3e e461 8a3e bfd1 013e 0697 753e
000000a0: 62fe a33e 4969 f0be 3480 023f 384b 8c3e
000000b0: 14e0 c23e 1dab 4e3e c517 d43d 1b04 babc
000000c0: 1f75 f43d be4d 1abf e36b 11bf 0a89 c7be
000000d0: a929 693e 3ce1 d73e bf0b e9bd 08ff a1bc
000000e0: 7cb4 98be 1b53 e2bd b768 32bf ac6c 92be
000000f0: 93ff 413d ea76 673f cb69 c3bd 3aeb 4cbe
00000100: c212 02be a77b 34be bc43 edbe c6e5 77be
00000110: e5a9 983e cf9d 67bd 1444 e2bd 80ea 2f3e
00000120: 3349 883e 5f0d 04bf a4b5 2f3f 9529 483f
00000130: 7d9b 9d3e 2feb d43e fb57 3dbe eb46 edbe
00000140: 8443 873e 23b7 583f abd9 15bd 3a36 163f
00000150: 5320 0ebe 747b c1be fb72 563e ceea 133e
00000160: a520 94bd 3f71 5c3f 0d88 26bf 2c43 edbd
00000170: e439 d0be ee2e 1e3f fc6f bb3e bdf5 e2be
00000180: 6dc3 d93e db04 be3c b185 093f fbcf 1cbe
00000190: 43d4 8d3e b19c dc3e e235 bdbd 4da9 f83e
000001a0: 7b63 a8be 3626 833e 036e c33d 64a1 503f
000001b0: a0e8 0d3e c460 1f3f 284a 2b3f 77ec 5e3f
000001c0: 65a5 033f e588 963e 14ac 20be 47a7 873e
000001d0: 8a52 5abe ea0b ce3d f53a bb3d 6b8a 4a3f
000001e0: d0bc d23e 486b 9e3e 2514 9ebe 38bf 0e3e
000001f0: c2a4 a53e 962a 3b3f e1b1 0e3e d7b9 323f
00000200: 047d 283d 20b0 3d3e a419 cb3e 84e3 953e
00000210: f3c3 67be 6819 353c c005 e93e f2e2 7cbe
00000220: 54d7 a6be b46b fabd 7d1a ffbd 2f20 123f
00000230: 6931 2e3f 1297 b1bd 50ea 23bf a366 2b3f
00000240: c79b 80be 3cb5 583f 8d40 293f 803d c13e
00000250: 5145 3abe a194 24be d03b 87be 867a 9b3e
00000260: c294 923e 7833 083f 1f88 80be 4b33 b6be
00000270: b670 5d3e d772 943e d96d acbc dd0e dc39
00000280: 0deb 37be 3c4f 31be c518 babb 595c a63e
00000290: db80 03be 1673 a13e 99d1 153c ee11 023b
000002a0: baf1 7cbe 958c 77bd d33b 7abe 76b2 87be
000002b0: 9ca5 ddbe 4bee 9cbe 7855 1dbe 056b b83e
000002c0: 1671 a3bc 6dfd 183e 0267 0bbc 976e 80bd
000002d0: 26f4 08bf 918d d2be 3125 823e 12b7 e03d
000002e0: f122 18bd f416 083f cfdd e33e 871b c33d
000002f0: 5a33 eabd d6e1 a53d e6a8 193e 2869 143f
00000300: 10c1 2a3e 86a7 1e3e 18a1 0d3e 437c d6be
00000310: 5728 9cbe 18b7 8fbe e119 dbbc da28 8cbe
00000320: 9e81 ff3e af1d 7a3b 9602 23be fe11 32bf
00000330: 87f5 273f 18c6 1b3f ad3f 203f 8549 2b3f
00000340: 872c 3a3e b1e4 73bd dae8 1abf bee7 38bf
00000350: 9e8c 01be cf1f 26bd 40f9 00bf 8efb 36bf
00000360: 2d55 8d3e ed4f 0abe f9d5 ea3e 5e74 0abf
00000370: b2c9 9fbe 2a0c 96be 4372 99bd 18d6 30be
00000380: 40af 86bc 6b2a 8cbe 306f 7bbc a908 04bd
00000390: dc07 8a3d ad29 86be bd26 2e3e ba14 c1be
000003a0: da4f 9e3e 57c3 2c3f b14e 123f c613 4c3c
000003b0: d0bc b93e 5be3 553e 8532 36be 3188 9ebc
000003c0: bd5c 0dbe 8b89 1a3f 5213 cb3e 7195 d63e
000003d0: b2e3 233e e321 003f deea a9be a45e 1ebf
000003e0: 35bb d03e 6c0d 503f c1a3 7c3e d6c7 163e
000003f0: 61b6 9fbe 2e2d 023f 55a7 963e ab71 353e

l1.bias f4 [8]
0.56837267 0.46344462 0.816433 1.2331053 0.5367986 1.1324189 0.80201703 0.571602
00000000: df80 113f 9d48 ed3e c101 513f 65d6 9d3f
00000010: a26b 093f 1af3 903f fd50 4d3f 8254 123f

l2.weight f4 [8, 8]
1.1684619 0.11055654 1.4818832 1.5185739 -0.9232746 1.3441374 1.1559315 -1.2475522
0.3000255 0.7271899 -0.82449716 -1.0682164 0.64874494 0.3949916 -0.21715038 1.0318671
0.13878414 0.20568244 -0.14172143 -0.008436893 -0.120315716 -0.16214912 -0.15684089 -0.26961085
0.89170426 0.7997823 -1.4658234 -1.1055001 0.35233533 0.47445267 0.41249937 -0.122846775
0.16761298 -0.44932652 0.13074681 0.062651224 1.0100952 0.45661595 -1.091776 0.88933843
-0.96433306 1.7756432 -0.9860986 0.4465923 -0.42104268 0.09803205 0.86618537 0.9789587
0.9152947 -0.38693687 1.0407864 0.11357614 0.9828075 0.47250018 -0.6285434 -0.051065154
-0.060563095 -0.20198664 -0.122125186 -0.027133413 0.22224824 0.119286165 -0.06367479 -0.16249605
00000000: 2990 953f 786b e23d 59ae bd3f a160 c23f
00000010: b95b 6cbf b20c ac3f 90f5 933f caaf 9fbf
00000020: f19c 993e 1e29 3a3f 3f12 53bf 51bb 88bf
00000030: 2614 263f 573c ca3e ab5c 5ebe 3914 843f
00000040: 6e1d 0e3e 6b9e 523e 6c1f 11be e53a 0abc
00000050: 1668 f6bd 6b0a 26be e69a 20be 6f0a 8abe
00000060: bb46 643f 88be 4c3f 1aa0 bbbf 0781 8dbf
00000070: 4c65 b43e 76eb f23e 1e33 d33e 1797 fbbd
00000080: bda2 2b3e 200e e6be 7ee2 053e 494f 803d
00000090: cd4a 813f 91c9 e93e 51bf 8bbf afab 633f
000000a0: 88de 76bf 4748 e33f f570 7cbf bfa7 e43e
000000b0: e892 d7be 07c5 c83d 53be 5d3f 0a9d 7a3f
000000c0: c150 6a3f 971c c6be 7d38 853f 9b9a e83d
000000d0: 4699 7b3f 8beb f13e 38e8 20bf b229 51bd
000000e0: 0211 78bd 96d5 4ebe c51c fabd e446 debc
000000f0: 0b95 633e 4e4c f43d ee67 82bd 5d65 26be

l2.bias f4 [8]
0.70441985 0.08848302 -0.05065002 -0.24142234 0.58571196 0.28583342 -0.096778125 -0.40055078
00000000: dc54 343f 9636 b53d 6576 4fbd 6b37 77be
00000010: 38f1 153f c258 923e 9c33 c6bd fe14 cdbe

l3.weight f4 [7, 8]
-0.085427105 -1.5199668 -0.08048128 -1.1704192 0.4853652 -1.1735212 0.29086918 0.20333578
0.6466551 -0.9036439 -0.13632919 -0.11569808 -1.8014442 -1.2289425 -0.171513 0.23495813
-1.1314869 0.0020348749 0.17781782 0.9621068 -0.127824 -0.5069776 -0.11933849 0.20320168
-1.0524389 0.14046745 -0.3371717 0.6881997 -1.6500587 0.46052065 -1.4905959 -0.2624247
-1.4458698 0.11668012 -0.039648876 -1.0578216 0.641058 -1.4029542 0.29907715 -0.13189876
0.1575127 -1.0869317 -0.32909206 -0.97020996 -0.91294837 0.56834996 -1.6376717 -0.08867959
-0.98606086 -0.023170948 0.09535877 -1.29218 0.29956964 0.525001 -1.0811766 -0.38807824
00000000: 68f4 aebd 468e c2bf 5fd3 a4bd 4cd0 95bf
00000010: ca81 f83e f135 96bf ceec 943e 4137 503e
00000020: 308b 253f 3555 67bf e199 0bbe 1df3 ecbd
00000030: b995 e6bf fd4d 9dbf 1ba1 2fbe dd98 703e
00000040: 90d4 90bf 895b 053b e015 363e a24c 763f
00000050: 4be4 02be 49c9 01bf bd67 f4bd 1a14 503e
00000060: 51b6 86bf b3d6 0f3e c5a1 acbe db2d 303f
00000070: 2035 d3bf 5dc9 eb3e d9cb bebf 885c 86be
00000080: 4312 b9bf fdf5 ee3d dc66 22bd b366 87bf
00000090: 611c 243f 0194 b3bf a420 993e 7810 07be
000000a0: 024b 213e 9420 8bbf c17e a8be ae5f 78bf
000000b0: fcb6 69bf 627f 113f 3a9f d1bf a59d b5bd
000000c0: 7c6e 7cbf 00d1 bdbc 754b c33d 2766 a5bf
000000d0: 3161 993e 7766 063f ff63 8abf 31b2 c6be

l3.bias f4 [7]
0.1724955 -0.19037412 -0.5554418 -0.33338597 0.07192794 0.1184471 0.28052345
00000000: a9a2 303e 6ff1 42be 6f31 0ebf 91b1 aabe
00000010: f54e 933d 6594 f23d c5a0 8f3e
