model_data.pth (torch, 7063 bytes, 6 tensors)

l1.weight f4 [8, 85]
00000000: 7d7d 29be 23bd b33e d2c7 fabd d77a 183f
00000010: 5320 133f e68b dbbe 7539 e1be 1c56 d3bc
00000020: 928f 213f 2c54 333f 7f98 173e 0ec0 283f
00000030: 1d6c 303f 8ba8 463e eb1c a6bd fa5e f4be
00000040: 8e85 89be b2df 143f ada7 0a3f 7154 30bf
00000050: 77fc a83d ce17 6a3f 8f05 ccbe 1d74 773f
00000060: e7b6 713f 623a 573f 0452 753e 589b c53e
00000070: ec77 553f b26f 7ebc 60ab 00bf f749 8bbf
00000080: 3e01 72be c941 ecbe d07b c53d 8814 e9be
00000090: e016 17be 4abb 573d 6f46 3c3e 4d65 163e
000000a0: d79b a63f 4ed9 ca3d d1c3 273f cc78 d6be
000000b0: ec6b c7be 30b8 e83d a5da 973e 4703 903e
000000c0: 57ae ec3d b06e 0d3f 204c d5be e468 2abd
000000d0: 0651 4f3e e817 7c3f 58ab c5be 781a 25bf
000000e0: 941b 8f3e d8b4 6c3e e780 d4be f82b 98bf
000000f0: 75be a6bf 063a 983f 9242 95bd 2d0b 2b3e
00000100: a258 cbbe 8026 babd fb7e b7be 4773 1fbd
00000110: feba 4ebf 96de 90be a776 6ebf e9d8 56bf
00000120: d0a3 e1be 6d9b 9b3e 0be9 313f cd6c 50be
00000130: a89f 533f c063 e43e 854a 14be e90c 033f
00000140: ee42 213f a1d3 8f3f 77ac 00bf b3e9 663f
00000150: 9847 c43d 20e0 47bf 7692 863e 7b53 553f
00000160: b94e 473f 6b48 6b3f ad42 9a3e d071 8f3f
00000170: 5547 ec3d 8f7c 4c3f b705 8fbf 7bf5 bf3e
00000180: 040d 8abf 26fd 35be 2f58 1b3f 8a1c 1bbf
00000190: e7ea 13bd 01c2 39bd 78cc a43d 553b 303f
000001a0: 3549 7d3f cdf2 10bf 410e 873f 19a5 d1be
000001b0: dc98 9b3f 0e56 8f3f 0aa5 893f 6232 1a3f
000001c0: c409 d73d ab73 fbbe 4056 83be 5abe 2b3e
000001d0: 36cb 0f3e 01d8 91bf c25f 983e 6886 13bf
000001e0: fddd 0dbc a90a de3e fd6c ba3c 6993 7c3e
000001f0: 5b10 39bf de3a 6a3f 2bff a03d fb84 38bf
00000200: 0422 2fbf 89d5 f23e fcd2 0e3e b999 153e
00000210: f253 3c3d e3c8 253f bf07 8fbf 518b b73e
00000220: 3ee0 ddbe 34a2 f4be 0002 64bf 81ac f33f
00000230: 8f81 183f 416c 9d3f dcab 2fbf 65ca cb3e
00000240: afcf 9bbe 4873 86bd 085e 8c3f 388a 1c3f
00000250: 323b 22bc 20be 06be 7c19 9a3e 1fcc f23e
00000260: cfbb 613f 82c8 963f b678 983d 6893 27bf
00000270: 29d1 46bf 3d6a c3be 43ba ebbc 4911 303f
00000280: c7cd 963e 4838 82bd 2d90 d9be 3eae 153f
00000290: 1a09 8cbe da6a ea3d 1cef f7be 26eb d1be
000002a0: 7653 8d3f c06f 943e 4715 3c3e 1be8 083e
000002b0: 6a39 003f 3884 ecbe 8c34 b9be 4766 76be
000002c0: 9227 35bf 16fa 8e3d 008b c7be f1d0 873f
000002d0: 354c 66bd 1315 323f 8cd3 063d 42e2 493d
000002e0: b909 0ebf 55eb 8ebe c5ec a23e 5497 a2be
000002f0: 00e2 0cbf 97b3 67bf cd59 9e3d 746b 70bf
00000300: 6e90 0e3f 702d 70bf f345 70bf 4d30 70bf
00000310: 17e3 4a3d d861 d83c 23e8 08bf bbeb 703c
00000320: 5781 1b3f 9ced 853f 3d67 a1be aa86 a0bd
00000330: c83e f4be 3aa8 0b3f 1a91 95be 0f67 ff3e
00000340: b877 1ebe 17e6 cf3e 8a1c ad3d 9100 583e
00000350: 1792 f5be f2c0 1abf ef2f c4be f9f4 133f
00000360: f220 88be 3cc6 4a3e f105 063f 7673 103f
00000370: e237 d1be af4b 223f 5314 293f e8c6 10bf
00000380: 2e6a 683f b410 f3be f950 5ebe ed79 b83e
00000390: 0b3c f7be 2239 5c3f be4e 743f bdba 84bf
000003a0: 5224 67be 7d21 133d 2570 da3e 6efb 02be
000003b0: c46e e7be 05f1 033f e603 1c3f 4961 d13e
000003c0: 26ba 8d3f c966 483f 7a1f 243f 05be 33bd
000003d0: b3c7 f5be 504a 40bb fdb2 d2be 6789 7a3e
000003e0: a8d0 9f3e 9715 8b3e f212 f5be 8ca1 9b3f
000003f0: 197a 2e3f 95ac 70bf dd0b dabe 8f90 ee3e
-0.16551776 0.35105237 -0.12245144 0.5956244 0.574712 -0.42880172 -0.4398915 -0.025797896
0.63109696 0.7005031 0.14804266 0.6591805 0.6891497 0.19400232 -0.081109844 -0.4772871
-0.26859707 0.5815383 0.541621 -0.6887885 0.08251279 0.91442573 -0.3984799 0.9666155
0.9441971 0.8407346 0.23957068 0.3859508 0.8338611 -0.01552956 -0.502615 -1.0881947
-0.23633286 -0.4614394 0.09642756 -0.45523477 -0.1475482 0.052668847 0.18386243 0.1468708
1.3016309 0.09904729 0.6553317 -0.41889036 -0.38949525 0.11363256 0.29659 0.281275
0.1155669 0.5524702 -0.4165964 -0.041603938 0.20245752 0.9847398 -0.38607287 -0.64493513
0.27950728 0.23115861 -0.41504595 -1.1888418 -1.3026873 1.1892707 -0.07288088 0.16703482
-0.3971606 -0.090893745 -0.35839066 -0.038928296 -0.8075408 -0.2829482 -0.931498 -0.8392473
-0.44070292 0.30392018 0.6949622 -0.20354004 0.8266549 0.44607353 -0.14481552 0.51191574
0.6299275 1.1236459 -0.5026316 0.90200347 0.09583968 -0.7807636 0.26283616 0.83330506
0.77854496 0.91907376 0.30128995 1.1206608 0.11537043 0.7987756 -1.1173619 0.37491974
-1.0785222 -0.1777235 0.6068143 -0.6059042 -0.036112692 -0.045351032 0.08046812 0.68840533
0.9893983 -0.56620485 1.0551225 -0.40946272 1.2156024 1.1198137 1.0753491 0.6023313
0.104999095 -0.49111685 -0.2565174 0.16771832 0.14042363 -1.1394044 0.29760557 -0.5762696
-0.008658883 0.43367508 0.022757048 0.24665608 -0.7229058 0.91496074 0.078611694 -0.7207791
-0.6841128 0.4742854 0.13947672 0.14609422 0.045978494 0.64759654 -1.1174239 0.35848477
-0.43335146 -0.4778 -0.8906555 1.9037019 0.5957269 1.2298661 -0.6862161 0.39802852
-0.30431888 -0.06564957 1.0966196 0.61148405 -0.009901809 -0.13158464 0.30097568 0.47421357
0.881772 1.177994 0.07444899 -0.654593 -0.77662903 -0.3816699 -0.02877534 0.68776375
0.2945387 -0.06358391 -0.4249281 0.58469 -0.27350694 0.114461616 -0.48424613 -0.40999717
1.1041095 0.28991508 0.18367492 0.13369791 0.50087607 -0.46194625 -0.36172903 -0.24062453
-0.70763505 0.06981294 -0.38973236 1.0610639 -0.05622502 0.69563407 0.03291659 0.049288042
-0.55483586 -0.2791392 0.31821266 -0.3175608 -0.5503235 -0.9050841 0.07731972 -0.9391396
0.5568913 -0.9381933 -0.93856734 -0.938237 0.049532976 0.026413843 -0.5347921 0.01470464
0.6074423 1.0463138 -0.31524077 -0.07838185 -0.47704148 0.5455357 -0.29212266 0.49883315
-0.15475357 0.40605232 0.08452709 0.21093966 -0.4796302 -0.6045066 -0.3831782 0.57795674
-0.26587635 0.19802183 0.52352816 0.5642618 -0.40862948 0.63396734 0.6604664 -0.56553507
0.9078702 -0.4747368 -0.21710576 0.36030522 -0.48287997 0.8602468 0.9543265 -1.0369488
-0.22572449 0.03592061 0.42663684 -0.12791225 -0.45201695 0.5153964 0.6094345 0.40894535
1.1072433 0.7828184 0.6411053 -0.04388239 -0.4800392 -0.0029341169 -0.41152182 0.24466477
0.3121388 0.2716491 -0.47866017 1.2158675 0.68155056 -0.9401334 -0.42587176 0.46594664

l1.bias f4 [8]
00000000: 066a 563f ecb8 8e3f f5e0 6e3f 601d e83e
00000010: 28ac 453f 7161 443f 7245 873f 0f32 843f
0.8375553 1.1150184 0.9331201 0.4533491 0.77215815 0.76711184 1.0568068 1.0327777

l2.weight f4 [8, 8]
00000000: 1177 60bf 3b3c e8be 7f3e cc3f 424a 833f
00000010: 64bc 2ebf 992a 8a3f 0d14 aa3f 5d6b b03e
00000020: 3197 b9be 5d47 783e 19e7 553f 5ca6 e33e
00000030: dc14 6c3f 6993 cc3f e86d 2fbf d886 c63f
00000040: fc2c ae3f 9c39 fa3f 6e1b 05bf 00d9 1f3d
00000050: d058 933f f7c4 30bf c48a 7fbe d9db 693f
00000060: 5297 293f 84e7 aebe 99de 8fbe 16f1 c5bf
00000070: de4d 0fbf 16f0 2e3f a2a9 e73f aa3d ef3f
00000080: e721 3a3e ffb7 803f 29ae 643f 8839 a13f
00000090: fb40 30bf 673f 19be 1ddf 803f 44c1 c4bf
000000a0: 1fc3 1040 c840 083e 0dd8 593f 2c57 6abf
000000b0: 40f7 763f f9a8 c23f c087 fbbd 8018 adbf
000000c0: d8da 9dbf 0ead d73f 5d4c 13be cd96 473f
000000d0: a524 9b3f 8ae6 1c3f 8ac1 3d3f 6909 f13f
000000e0: d901 7a3f 37fb c2be b026 6a3f daac 413f
000000f0: 286a d13f ba0d 223f 90a1 e1bf 6127 a13f
-0.8768168 -0.45358452 1.5956572 1.0257037 -0.6825621 1.079425 1.3287369 0.34456912
-0.36248162 0.24245973 0.8355575 0.4446286 0.9221933 1.5982486 -0.6852708 1.5509901
1.3607478 1.9548831 -0.5199498 0.039025307 1.1511478 -0.69050545 -0.24955279 0.91351086
0.6624652 -0.34161007 -0.28099516 -1.5464199 -0.5597819 0.6833509 1.8098643 1.8690693
0.18176995 1.0056151 0.8932825 1.2595682 -0.6884915 -0.14965592 1.0068089 -1.537148
2.2619092 0.13305962 0.8509529 -0.91539264 0.96471024 1.5207816 -0.12281752 -1.3523102
-1.2332411 1.6849687 -0.14384599 0.7796448 1.2120558 0.61289275 0.7412344 1.8830997
0.9765907 -0.38082287 0.9146528 0.75654376 1.6360521 0.63302195 -1.762743 1.2590142

l2.bias f4 [8]
00000000: ee29 e83e db2d debb ece9 083e 5627 863f
00000010: 1770 fe3e 70d6 fd3e a65c c8bd 3ae7 4e3f
0.4534449 -0.0067803687 0.13370484 1.0480754 0.49694893 0.49577665 -0.09783296 0.80821574

l3.weight f4 [19, 8]
00000000: 8623 00be e156 853e 2e50 d3be ab38 90bd
00000010: ffb6 56c0 86dd 123f abde 69bf 00b7 0e3f
00000020: 796b 22be fc5a a2be 3579 413f 97b9 123e
00000030: e11a 46bf 1e0f 3fc0 2eb1 4f3f a395 cfbf
00000040: 0bfb debf c8c9 c73e 49f0 ef3e dfd9 683e
00000050: 5824 4dc0 9e94 83be 618b c63e 952f 6bbe
00000060: c848 213f 61e9 82be b8c8 01c0 1257 8bbf
00000070: d217 523f c099 21c0 89ca 7c3e 547c a5bf
00000080: 76ea 6b3e 8c9b 6f3f 92e0 36bf 7e28 c6bf
00000090: f7cd 07c0 c13e b1bf f779 203f f57e 2c3f
000000a0: 4570 d43d 80a8 debd d6f6 c6bf 9f40 413f
000000b0: 9143 16c0 acaf 6a3e e325 7f3e 4557 3cbf
000000c0: 44c4 44c0 dcdf b43e 5776 843e c450 bf3e
000000d0: 0e99 5cc0 8f46 4c3f 12f8 fabf e50b 1c3f
000000e0: 4dd7 c43e c0fb d8bf 3392 0ebf 5900 883f
000000f0: 0a09 71be 6951 fcbf 70d6 8e3d 4eff c0bf
00000100: 9a11 f3bf e078 803d ff2c f83d 9f94 f9bf
00000110: 23a4 7dbf 4172 0c3f 4b0d 213e aaaa 093f
00000120: fbc4 a1bf bd9f c53e 1385 243f 2032 17bf
00000130: c521 25c0 8aee 3ac0 786d 263f 5eae 2b3f
00000140: d720 cfbc 1a7d 743d 4cd0 c7be ce85 1cbf
00000150: e957 63bd 13d9 cbbd b673 9b3e 4343 85bf
00000160: 3635 dc3e c1a4 f6bf 4dd3 fcbf e5c6 be3d
00000170: e564 2e3f f219 d2bd bfc7 3ebf 5b55 a9bf
00000180: e515 89bf 2bc2 70bf 1fb2 333f 2666 113e
00000190: 9596 14bf 2f4c c2bd c6e3 96bc 6b56 4bbf
000001a0: 1790 02c0 5b0f b8bf 91e2 443f 599a 4dbf
000001b0: dba2 09bf 5667 4f3f 8953 eebf 556e 7b3e
000001c0: d5bb 90bf 3f03 74bf f468 d73d f2c9 603f
000001d0: 7bec d1be dddf 013f 08a2 15c0 8e5f 75bf
000001e0: d4e1 fc3e 6e55 273f 7e04 d8bf ee42 893e
000001f0: 1d23 2bbf 5ee4 1ac0 cc99 ea3e 66b5 9cbf
00000200: d529 8abd fff5 a23d 4318 89bd af3d d0bd
00000210: 285b 8bbf 566b f5be 2580 173e e4e6 b03e
00000220: bb4d 3a3e fc93 023f a29e 06c0 bc0b e5bf
00000230: 8309 eb3d 13df 84be eadf f1be 34b2 d83e
00000240: 1e30 b8be 7db3 babd f66a 82be b6c2 16bf
00000250: 2403 2a3c 6dc1 213f a735 0ac0 4021 a93e
-0.12513551 0.26042846 -0.4127211 -0.070420586 -3.3549192 0.5736927 -0.9135539 0.55747986
-0.1586131 -0.3171004 0.7557557 0.1432861 -0.77384764 -2.9852977 0.8112973 -1.621754
-1.7420362 0.39021134 0.4686301 0.22739361 -3.2053432 -0.25699323 0.38778213 -0.2296737
0.6300168 -0.2556868 -2.027876 -1.0885947 0.82067597 -2.5250092 0.24686636 -1.2928567
0.23038658 0.9359672 -0.7143642 -1.5481107 -2.121946 -1.3847276 0.62686104 0.6738122
0.10372976 -0.108719826 -1.5544078 0.7548923 -2.347874 0.22918576 0.24916796 -0.7357066
-3.074479 0.3532704 0.25871536 0.37366307 -3.4468417 0.79795164 -1.9606955 0.6095565
0.3844551 -1.6951828 -0.5569183 1.0625106 -0.23538604 -1.9712344 0.069744945 -1.5077913
-1.8989747 0.06273055 0.12117957 -1.949848 -0.9907858 0.5486184 0.15727727 0.5377604
-1.2638239 0.38598433 0.64265555 -0.5906086 -2.5801861 -2.9208093 0.65010786 0.6706294
-0.025284214 0.05968962 -0.39026105 -0.6114167 -0.05550376 -0.09953513 0.30361718 -1.0411152
0.43009347 -1.9269029 -1.9751984 0.0931528 0.681227 -0.10258855 -0.7452354 -1.3229173
-1.0709807 -0.94046277 0.70193666 0.14199123 -0.5804227 -0.09487187 -0.018419158 -0.7942874
-2.0400445 -1.4379686 0.7690821 -0.8031364 -0.5376412 0.81017053 -1.8619243 0.24553807
-1.1307322 -0.95317453 0.10518065 0.87808144 -0.41000733 0.50732213 -2.3380146 -0.9584893
0.49391043 0.6536473 -1.6876371 0.26808876 -0.66850454 -2.4201884 0.45820463 -1.2242858
-0.0674626 0.07957076 -0.06694081 -0.10168015 -1.0887194 -0.47933453 0.14794977 0.34551156
0.18193714 0.51007056 -2.1034322 -1.7894206 0.114764236 -0.25951442 -0.47241145 0.42323458
-0.3597421 -0.09116266 -0.2547223 -0.58890855 0.010376725 0.6318577 -2.1595247 0.3303318

l3.bias f4 [19]
00000000: 5db4 9f3c 60b3 85be 8400 f9bd 12c6 82bd
00000010: 695d d7be 5e8c 8c3e c21f 483b 9d40 903e
00000020: 164e 42bc e595 953d 6bd6 f2be e365 e33e
00000030: 0a9c 973c adc0 19bd 0b5d 723e ff75 69be
00000040: 0c1f 293f e226 c4bd b185 363e
0.019495184 -0.26113415 -0.121583015 -0.06385435 -0.42063454 0.27450842 0.0030536507 0.28174296
-0.011859437 0.07303981 -0.47429213 0.4441367 0.018507022 -0.037537266 0.23668306 -0.22798918
0.66063 -0.09577729 0.17824437
