model_data.pth (torch, 5847 bytes, 6 tensors)

l1.weight f4 [8, 72]
00000000: 8740 263f ef6b 85be ec23 7fbe e505 673e
00000010: 3cc3 bcbe 82f3 32be 4aac ba3e e08c e5bd
00000020: 0197 6dbe 17c3 413e d606 623e dbcf e4bd
00000030: 4675 90be 6c56 25be 3409 8bbe fc8c 6e3e
00000040: 8d84 053f f02b 4cbe 6dcd 6cbe 9704 873e
00000050: 53e6 b33e 12ac 4d3e b5d6 16be fb00 78bf
00000060: dacb 103e f8e4 0a3f 0764 af3d f48c f63d
00000070: a038 803e 611f 01bb 791d 83bd 65ef fd3e
00000080: c5b5 363f 74c4 f03e 2444 623e 19c7 cbbe
00000090: 8b9a 043f d685 ec3e 7424 a53d 405e 133e
000000a0: 1439 073f eab7 963e f0e9 cd3d a2a1 60be
000000b0: ccdb b6be 00f1 72bf 7c3b d43d a996 153f
000000c0: 31bd 5b3e ed98 80be 4353 67be 7f19 d53d
000000d0: e81d 6dbe c9e5 47bd 19ab 243f 3209 90be
000000e0: 3416 3abe acc3 dbbe a841 233f 3faa f73e
000000f0: b57b 4c3f 92d3 1e3f 46d1 9abe 680f a43d
00000100: 55d9 86be adbf 0e3f ec52 df3e 511f a93d
00000110: e2bf 7a3f 2e6f 513f cfc5 a63d 882e 2c3f
00000120: 2c12 3e3e 5de4 223e bad1 473e 9637 153d
00000130: 92d2 c23d 02e2 913e 6f8d cbbe 9fb8 4a3e
00000140: 9ed7 c73d f385 ac3d 219a 913e 1c62 293e
00000150: bc33 e03d 0606 f13e ef60 993e b471 c23e
00000160: e80d d43d 4f22 87be b75e c3be 34ac 08be
00000170: 0c4e 7bbe 28b4 c43e d20c 65be 9b2d 37bf
00000180: 2f09 aebd b8ac 6abe d71e 63bd 1de7 ddbc
00000190: ccce 3bbe dcc6 523e 5737 043e ae78 f93e
000001a0: 2f79 e93d a5ef 413f aeac dd3e 2848 e63e
000001b0: 435c 843d 3023 0fbd 84ff 883d 3e1c 3ebe
000001c0: 0860 0e3e b40a e53d 7f01 a13e 180d 15be
000001d0: 9ac0 5cbd 46c1 a23e d6a9 b33e 6ec3 0e3f
000001e0: a441 c33e d7b1 713e 5824 aebe da30 3d3d
000001f0: bd2b 72be 4ba6 923d 9847 f63d 0eeb b53d
00000200: 2023 623e 66c0 eb3d 234d 053e 885c 09bf
00000210: 377f 1cbf 5ba9 c3be c932 5fbe 54ce 6ebd
00000220: cd24 ed3d f82a b73e cbb1 713d 9e53 743e
00000230: 0201 97bd 190a eebd 9e4c 80bd 6cf2 98bd
00000240: 1fd1 483e 5181 c7bd 06c2 7cbe 5e1a 7abe
00000250: 183b 07bf d040 adbc 0c6d 503f b6c4 853d
00000260: b448 29be c4ed 8bbe 4580 8e3d ea06 993d
00000270: 36e4 18be a557 c6be ac16 eabe 36d1 c5bc
00000280: c15b a2bc a4de adbd e832 9f3e d3af 92be
00000290: 4856 763f f899 bcbd c8b3 80bc 317c 2c3f
000002a0: 214b 0ebf cfdb 203f 8b6b 13bf ddf0 22bf
000002b0: bc75 1cbf 4f13 85be 1c3d 92bc 099c a53d
000002c0: 691e d4be 35dd adbe 0482 323d 99d4 d5bd
000002d0: 9997 d4be a3fb e83d 5212 163f 0d4a 073f
000002e0: 8e78 543e fc3e 04bd ffb3 493c a83c c5bd
000002f0: b4c9 6ebe 8a80 22bf 6ff1 763c 3491 4ebe
00000300: 3f84 843d 509e efbd 0d64 583e bb5f 1d3f
00000310: 4a1d 573d c448 3a3e 9a51 4bbe 4672 2ebe
00000320: 2e7e 2dbe 666e 943c 0a1d c6be b1af 2e3f
00000330: 004d 883f 0c5b 0f3f 5cc6 94bc ca23 b0be
00000340: 1485 9fbd 63b5 4dbe 4726 89be 74a4 8bbe
00000350: 4192 68be 50bb debd b37e 1fbf c619 e83e
00000360: 1a21 79be 5ac2 8a3e ff81 c6bd 39ab bf3e
00000370: 6c32 ab3e fb84 a43e ca69 c4be 44ff 8c3e
00000380: 642e 07be a3e9 053f de11 e33e ad5b 90be
00000390: ba49 a53b 02f1 123f 0162 19bf d856 a33e
000003a0: 8792 99be 15bb 15bd 988c 893e f1fa d83e
000003b0: 1c9a a8be d787 bf3e 4d0f da3d 3cca 623e
000003c0: b14d 263f 8d30 3ebe 638e 253f ee3b 143f
000003d0: 861a 263f 77da 923e 7267 54bd de4d 0e3f
000003e0: 9dc1 bdbe 539a 763f 81a6 0a3f 66c4 303f
000003f0: dbf2 b0bd f144 44be 4983 44be 9048 9bbc
0.6494221 -0.2605891 -0.24916047 0.22560842 -0.36867702 -0.17475703 0.3645957 -0.112085104
-0.23202135 0.18922077 0.2207292 -0.11172458 -0.28214473 -0.16146249 -0.2715546 0.23295969
0.5215538 -0.19938636 -0.23125239 0.2637069 0.3513666 0.20085171 -0.14730342 -0.96876496
0.14140263 0.5425563 0.085640006 0.120386034 0.250432 -0.0019702541 -0.06402106 0.49596706
0.7137111 0.47024882 0.22096306 -0.39800337 0.51798314 0.4619586 0.080635935 0.14391422
0.5282147 0.2943719 0.10054386 -0.21936658 -0.35714567 -0.94898987 0.10362908 0.58433014
0.2145889 -0.25116673 -0.22590356 0.104052536 -0.2315594 -0.048803125 0.64323574 -0.28132015
-0.18172532 -0.42922723 0.6377206 0.48372075 0.7987626 0.6204158 -0.30237788 0.08010751
-0.26337686 0.55761224 0.43617952 0.08257926 0.9794904 0.8181027 0.08143198 0.672585
0.1856162 0.15907426 0.19513598 0.036429964 0.09512819 0.28492743 -0.39756343 0.1979699
0.097579226 0.08423986 0.28437904 0.16541332 0.109473675 0.47074908 0.29956767 0.37977374
0.10354215 -0.26393363 -0.381582 -0.1334694 -0.24541491 0.38418698 -0.22368172 -0.71553963
-0.084978454 -0.2291745 -0.055449333 -0.027087742 -0.18340605 0.20583671 0.12911735 0.48724884
0.11400067 0.75756294 0.43295807 0.44976926 0.0646291 -0.034945667 0.06689361 -0.18565461
0.1390382 0.11183682 0.31446454 -0.14555776 -0.053894617 0.3178808 0.35090512 0.5576695
0.38136017 0.23602997 -0.34012103 0.046189167 -0.23649497 0.07160624 0.12025374 0.08882724
0.22083712 0.115113065 0.13017707 -0.53656816 -0.61131614 -0.38215145 -0.21796717 -0.05830224
0.11579285 0.3577497 0.059007447 0.23860022 -0.07373239 -0.1162302 -0.062646136 -0.07468113
0.19611023 -0.09741462 -0.24683389 -0.24424121 -0.52824545 -0.02114907 0.8141639 0.0653166
-0.1653164 -0.27329838 0.06958059 0.07472022 -0.14930806 -0.38738742 -0.45720422 -0.024147611
-0.019819142 -0.08489731 0.31093526 -0.28649768 0.96225405 -0.09209055 -0.015710726 0.67377
-0.5558339 0.628354 -0.5758597 -0.6364878 -0.6111715 -0.25991294 -0.017851405 0.08086402
-0.4142945 -0.3395783 0.043581024 -0.104409404 -0.4152191 0.11376121 0.58621705 0.5284737
0.20749113 -0.03228663 0.012310981 -0.0963071 -0.23319131 -0.63477385 0.015072211 -0.20172578
0.064705364 -0.117001176 0.21131916 0.614742 0.052518167 0.1819182 -0.19855347 -0.1703578
-0.16942665 0.018119048 -0.3869403 0.68236834 1.0648499 0.559983 -0.018160991 -0.34402305
-0.077890545 -0.20088725 -0.26787016 -0.27273905 -0.22712041 -0.10875571 -0.623027 0.45332164
-0.24329033 0.27101403 -0.096927635 0.3743532 0.33436906 0.32132706 -0.3836196 0.27538502
-0.1320129 0.52309626 0.4434957 -0.28194943 0.0050441893 0.57399 -0.5991517 0.31902194
-0.29994604 -0.03655537 0.26865077 0.42378953 -0.32930076 0.37408325 0.1064745 0.22147459
0.649623 -0.18573208 0.6467039 0.57903945 0.6488422 0.286823 -0.051856466 0.55587566
-0.37061778 0.9632923 0.54160315 0.6904968 -0.08640071 -0.19166924 -0.19190706 -0.018955499

l1.bias f4 [8]
00000000: 697a 593f 0d7e 1c3f 6c1c 233f ed2c 523f
00000010: 6187 fabd 078c 1c3f b6b7 393f 435c 383f
0.8495241 0.6112984 0.63715243 0.820998 -0.12232853 0.61151165 0.72545946 0.7201578

l2.weight f4 [8, 8]
00000000: 2caf 623f 3acf 7d3f c577 f43e a4e3 893f
00000010: 77ef 853e c295 2fbf e9cc a0bf a805 2c3f
00000020: 1819 673f f71f a33d bba3 7d3f f166 26be
00000030: 3cf6 35bd bd36 5abf 0e96 e5be 8ce0 11be
00000040: 50b6 863e 4c68 9abf e366 d43f 63f3 903f
00000050: ea3b 2b3e 7011 873f 5617 d53f a562 24bf
00000060: 1379 5cbf 3eb3 073f 3947 b2be b868 4c3f
00000070: d86c ae3c e712 8b3d c3eb 443f 43c0 ad3f
00000080: d5ba 833f 6747 2f3f afa3 4f3f b75d 57bf
00000090: 002b 0fbe 34fc e13e 16a4 b3be 43c6 c4be
000000a0: 37bd 5a3f b17c 993f a36f a8bf 8ea9 a23f
000000b0: 7efa 7fbe 1507 563f d4f1 82be 044d 3fbe
000000c0: af5b c73f 290c 85be 8860 8dbf d6bd 3e3c
000000d0: 8709 1c3e dd44 b33f 0cf2 013f 7773 60bf
000000e0: c884 823e e257 78bd 1e17 913f d309 a8bf
000000f0: 016d 1abe fbba 1f3e 6e5a f23e 7652 523f
0.8854854 0.9914433 0.47747627 1.0772595 0.2615926 -0.6858789 -1.2562534 0.6719613
0.90272665 0.07965081 0.9907796 -0.16250207 -0.04442428 -0.85239774 -0.44841045 -0.14245814
0.26310968 -1.2063079 1.6593899 1.1324276 0.16722074 1.0552197 1.6647747 -0.6421302
-0.86122245 0.53007877 -0.34819964 0.7984729 0.021292135 0.06790715 0.76922244 1.3574299
1.0291392 0.68468326 0.81109136 -0.8412737 -0.13981247 0.44137728 -0.35086125 -0.38432512
0.8544497 1.1991178 -1.3159069 1.2707994 -0.24997899 0.83604556 -0.25575125 -0.18681723
1.5574855 -0.2598584 -1.1045084 0.01164194 0.1523801 1.400539 0.5075996 -0.87676185
0.2549193 -0.060630687 1.133518 -1.3127998 -0.15080644 0.15598671 0.47334617 0.82157075

l2.bias f4 [8]
00000000: b6da e13c 621d 183f 44cb 013f ea90 643f
00000010: a85f 533c 00f0 bd3e b464 093f d7ab d73e
0.02757011 0.59419835 0.50700784 0.8928362 0.012901224 0.37097168 0.53669286 0.4212329

l3.weight f4 [8, 8]
00000000: 19b4 af3e b27d 4b3f 01f7 a4bd 9507 93be
00000010: 38f7 373e 0cf3 8fbf 7941 94bf 097c d33e
00000020: ecf9 f8be 891b 6dbf 1f4c c33e 1b45 5e3e
00000030: 77b5 acbf e3e9 233f d69d 143f b91c b4bf
00000040: a33e bdbf a44f 8abf 51d9 4f3f 6f22 0d3f
00000050: 5781 9fbf 8333 9ebf a47d 81bf d946 2ebc
00000060: 53e4 b5bf d439 e6bf 3149 dfbd 52b9 b6bf
00000070: 31f2 bc3e 2ecc a43e 6b0b 5b3f 2258 34bd
00000080: 0135 8e3f 872a cbbe 926c 80bf 933f 94ba
00000090: 0393 3dbf 9c9f 6d3f 0672 9bbf 78e5 efbf
000000a0: 8d4a 94be 8e98 85bf efd5 a9bf d956 943f
000000b0: 8114 b1bf 47e5 09bd 7e65 84bf 6d93 433f
000000c0: ff68 d5bf d227 423e 0ddb 203f a543 97bf
000000d0: 19ce 233d 9f36 d7be f90d 123e d3c6 e33e
000000e0: 8d1d 76bd 501d 3f3f 9f40 a6bf 7a99 7cbf
000000f0: 1f86 263f 2c0d 833e f85f 053f 1987 21bf
0.3431709 0.7948867 -0.08054925 -0.28716722 0.179654 -1.1246047 -1.1582481 0.4130557
-0.48628175 -0.9262014 0.38144013 0.21706049 -1.3492879 0.6402876 0.5805334 -1.4071265
-1.478474 -1.0805554 0.81190974 0.55130666 -1.2461346 -1.235947 -1.0116467 -0.010637009
-1.4210304 -1.7986398 -0.10902632 -1.4275305 0.36903527 0.32187027 0.855643 -0.044029362
1.1109926 -0.39680883 -1.0033133 -0.001131045 -0.7405245 0.9282167 -1.2144172 -1.8741903
-0.28963128 -1.0437181 -1.3268412 1.1589004 -1.3834382 -0.03366592 -1.0343473 0.7639683
-1.6672667 0.18960503 0.62834245 -1.1817518 0.039991472 -0.4203386 0.14263143 0.44487628
-0.060086776 0.746541 -1.2988471 -0.98671687 0.650484 0.25595987 0.5209956 -0.6309677

l3.bias f4 [8]
00000000: 9c1c 9d3d 4042 c2be 78df b33e 2f68 b3be
00000010: f66d aabd 65f8 093f 4bb8 17be fcd1 803e
0.076714724 -0.3794117 0.3513143 -0.35040423 -0.08321755 0.53894645 -0.14816396 0.25160205
