model_data.pth (torch, 7127 bytes, 6 tensors)

l1.weight f4 [8, 87]
0	0xbd80606b	-0.0626839
1	0x3ec7b23f	0.39003178
2	0x3e51141c	0.20417827
3	0xbeb66a7b	-0.35628113
4	0xbdf63e56	-0.120236084
5	0x3fb27e59	1.3944808
6	0xbd89c548	-0.067270815
7	0xbf2800f2	-0.6562644
8	0x3ea8cf54	0.3297068
9	0xbeb8476c	-0.3599199
10	0xbf8e5e8e	-1.1122606
11	0x3e8a9a08	0.27070642
12	0xbf59b772	-0.8504554
13	0xbf912bfd	-1.1341549
14	0xbe0ca63d	-0.1373529
15	0x3f53b740	0.8270149
16	0x3ed347cf	0.41265723
17	0xbea805fa	-0.3281706
18	0x3f08d469	0.5344911
19	0xbe97a6da	-0.29619485
20	0xbf27f66f	-0.656104
21	0x3f4d9652	0.80307496
22	0xbf27e59d	-0.6558474
23	0xbe9779bd	-0.29585066
24	0xbf281314	-0.6565411
25	0xbf27f86f	-0.65613455
26	0xbf2823aa	-0.6567942
27	0x3eb75139	0.35804155
28	0x3f115f7d	0.5678633
29	0x3eea420a	0.4575351
30	0xbdf6e554	-0.120554596
31	0xbf2623b5	-0.64898235
32	0xbf27c30a	-0.6553198
33	0x3fb4925d	1.4107167
34	0x3f932ace	1.1497438
35	0x3f9d3a6e	1.2283456
36	0xbd86a912	-0.06575216
37	0xbdbf5b3c	-0.093435735
38	0xbe2c6570	-0.1683557
39	0x3e6f1a03	0.23349766
40	0x3f2e01e7	0.6797165
41	0x3f6bf9f1	0.92178255
42	0x3dfa42c2	0.12219764
43	0x3e51972f	0.20467828
44	0x3f92c4a9	1.1466266
45	0x3f52b288	0.8230367
46	0x3ea09d76	0.31370133
47	0x3e59de11	0.21276118
48	0xbdcf4a83	-0.10121634
49	0x3ed2fcde	0.41208547
50	0xbeb60e34	-0.3555771
51	0x3fa54713	1.2912315
52	0x3ec396d0	0.38200998
53	0x3f991f1a	1.1962616
54	0x3f148be2	0.58025944
55	0x3f4c7beb	0.79876584
56	0x3eaa3fe6	0.33251876
57	0x3f607bb2	0.87688744
58	0x3f8c6b5f	1.0970267
59	0x3f2155be	0.6302146
60	0xbed6c8fa	-0.41950208
61	0xbf73f98d	-0.9530266
62	0x3f237ab3	0.638591
63	0xbd31b8b0	-0.043389022
64	0x3e981cd9	0.2970951
65	0xbe9f8c1a	-0.31161577
66	0x3e871d78	0.2638967
67	0x3f463298	0.7742095
68	0x3e7e8d7e	0.24858662
69	0x3eff6eb6	0.49889153
70	0xbdcca373	-0.09992113
71	0x3c9e9474	0.019357897
72	0xbf26e38b	-0.65190953
73	0xbeb88ff2	-0.36047322
74	0x3e552a07	0.20816813
75	0xbe99f81f	-0.30072114
76	0x3e9fb0d9	0.31189612
77	0x3f51fe9f	0.82029146
78	0xbf23311e	-0.6374682
79	0x3f9f3427	1.2437791
80	0x3ea2e185	0.31812683
81	0x3c745d78	0.014914863
82	0x3e82886b	0.25494704
83	0xbf85e065	-1.0459105
84	0xbf5d0de0	-0.86349297
85	0xbf281208	-0.65652514
86	0xbf501276	-0.8127817
87	0x3f320c61	0.6955014
88	0x3d9e541c	0.07730886
89	0xbe568092	-0.20947483
90	0xbe109897	-0.14120708
91	0xbf7261a3	-0.9468023
92	0x3eff6c0d	0.49887124
93	0x3ee1a318	0.44069743
94	0x3f805e6b	1.0028814
95	0x3f0499ad	0.5179699
96	0xbe160bc0	-0.1465292
97	0x3e371f10	0.17882943
98	0xbd818565	-0.06324271
99	0x3f0ece5b	0.55783623
100	0x3f24eda4	0.6442511
101	0x3e11cd66	0.1423851
102	0xbe9745f5	-0.2954556
103	0x3f5c8879	0.8614574
104	0x3f364e50	0.71213245
105	0xbd199f0c	-0.037505195
106	0xbe86d36b	-0.26333174
107	0x3f89b685	1.0758826
108	0xbe5a35c5	-0.21309574
109	0xbed0f592	-0.40812355
110	0xbe52038a	-0.20509163
111	0xbed14366	-0.40871733
112	0xbed14cc7	-0.4087889
113	0xbed12e4b	-0.4085563
114	0x3d139862	0.036033995
115	0x3dcff7cc	0.101546854
116	0x3f733a63	0.95010966
117	0x3f854acd	1.0413452
118	0x3fa11a8a	1.2586224
119	0x3fd0c336	1.6309574
120	0xbe91bf03	-0.28466043
121	0x3f437788	0.76354265
122	0xbdb51850	-0.08842528
123	0x3ef8b9fa	0.4857939
124	0x3f0d2bea	0.5514513
125	0xbf0f706a	-0.56030905
126	0xbe2ab3d1	-0.16670157
127	0xbe7542b5	-0.23951228
128	0xbe89b4df	-0.26895806
129	0x3eaeca11	0.3413854
130	0x3f981d22	1.1883891
131	0x3f6e7338	0.9314456
132	0x3ea49a6e	0.3214907
133	0x3ecc141f	0.398591
134	0xbe472c6d	-0.19450541
135	0xbca41afa	-0.020032395
136	0xbe98210d	-0.29712716
137	0xbe414a7b	-0.18876068
138	0x3f21341b	0.6297013
139	0x3e73f7cd	0.23824997
140	0x3f2d7a8e	0.6776513
141	0x3fb0911d	1.3794285
142	0xbf921840	-1.141365
143	0xbe063b70	-0.13108611
144	0xbce1b860	-0.027553737
145	0xbd93b22b	-0.07211717
146	0x3e2977e5	0.16549642
147	0x3fccd29b	1.6001772
148	0x3fb5344a	1.4156582
149	0x3fb31756	1.3991497
150	0x3f124d35	0.5714906
151	0xbbabc6b0	-0.0052421913
152	0x3f053b67	0.52043766
153	0x3ec3c128	0.38233304
154	0x3ccd5380	0.02506423
155	0xbe9be2ae	-0.3044638
156	0xbf0adeff	-0.54246515
157	0x3f0bf734	0.5467408
158	0xbf10afbc	-0.5651815
159	0xbf0a9cd6	-0.5414556
160	0xbe509624	-0.20369774
161	0xbea1068b	-0.31450304
162	0xbe8999a1	-0.26875022
163	0x3ebd6828	0.36993527
164	0xbe00aaa5	-0.12565096
165	0x3e9dc42d	0.30813733
166	0xbed0fc79	-0.4081762
167	0xbc651966	-0.013983106
168	0x3f2e14af	0.6800031
169	0x3ed8d720	0.42351627
170	0xbe455a00	-0.19272614
171	0xbe680bb1	-0.2266071
172	0xbed0e994	-0.40803206
173	0x3e212095	0.15735085
174	0x3ebb8969	0.36628273
175	0x3f12519d	0.5715578
176	0xbe6cde13	-0.2313159
177	0xbe1c8532	-0.15285185
178	0xbf08cc1c	-0.53436446
179	0x3f104e0c	0.5636909
180	0xbec41ba1	-0.3830233
181	0x3f26d044	0.6516154
182	0x3e94413b	0.28956017
183	0xbe83d5f5	-0.25749174
184	0x3fc7c49e	1.5606878
185	0xbcda930a	-0.026681442
186	0x3f36c1c2	0.713894
187	0xbd39dcc2	-0.045376547
188	0xbe79b672	-0.24386004
189	0x3e9f5dba	0.31126195
190	0x3ec84900	0.39118195
191	0xbea781dc	-0.32716262
192	0x3f3bcfbb	0.73363847
193	0xbe301ad5	-0.17197736
194	0x3f0c2924	0.54750276
195	0x3e80ac94	0.25131667
196	0xbedb7579	-0.42863062
197	0xbe60201f	-0.21887253
198	0xbedbaa43	-0.42903337
199	0xbedc4c4b	-0.43026957
200	0xbedb874a	-0.42876655
201	0x3d58b64c	0.052908227
202	0x3e9df1e6	0.30848616
203	0x3fb2cff7	1.3969716
204	0x3ed7086f	0.41998622
205	0xbf0d80aa	-0.5527445
206	0x3fbd9a30	1.4812679
207	0x3f227016	0.6345228
208	0x3f3e3a4d	0.7430771
209	0x3e87ddb9	0.26536348
210	0xbd0dc27d	-0.034609307
211	0x3ef6fd6f	0.4824023
212	0xbeb32a0f	-0.34993026
213	0xbd00d2ff	-0.03145122
214	0x3ecf1382	0.4044457
215	0x3f704c69	0.9386659
216	0x3e588c0a	0.2114717
217	0x3f4b89e2	0.7950727
218	0x3f88d997	1.0691403
219	0x3ebb5acb	0.36592707
220	0x3e374802	0.17898563
221	0xbdcceadf	-0.100057356
222	0xbe84765d	-0.25871554
223	0xbe761e2d	-0.24034949
224	0x3f4232e2	0.7585889
225	0x3e265816	0.1624454
226	0x3f80889a	1.0041687
227	0x3fb8ba99	1.4431945
228	0x3fe1363c	1.7594676
229	0xbf6e66d6	-0.93125665
230	0xbe3a66f9	-0.18203343
231	0xbba4031b	-0.005005253
232	0x3f838f3e	1.0278089
233	0x3ec534af	0.38516757
234	0x3e8b0eda	0.27159768
235	0x3e46fdf9	0.1943282
236	0x3f600b19	0.87516934
237	0x3f1cafcd	0.6120575
238	0x3dea17a7	0.114302926
239	0xbe32aa8b	-0.1744787
240	0x3de708aa	0.112809494
241	0x3eb7d49e	0.35904402
242	0xbe12e2e9	-0.14344372
243	0xbf0209c0	-0.5079613
244	0xbe0cebc1	-0.13761808
245	0xbee90558	-0.4551189
246	0xbee33aac	-0.443807
247	0xbe5815b9	-0.21102037
248	0xbe1e552a	-0.15462175
249	0xbe8d4a07	-0.2759554
250	0x3d980467	0.07422715
251	0x3f89ece9	1.0775424
252	0x3dee7ad9	0.11644525
253	0xbebb74d1	-0.3661256
254	0xbde18215	-0.11011139
255	0x3ede8b97	0.43465874

l1.bias f4 [8]
0	0x3f277e36	0.6542696
1	0x3ecf7a21	0.40522864
2	0x3eda2073	0.42602882
3	0xbe15aad2	-0.14615944
4	0x3ee974f9	0.45597056
5	0x3f94fb7e	1.1639249
6	0x3fa522e1	1.2901269
7	0x3f74b642	0.95590603

l2.weight f4 [8, 8]
0	0xbf828ff5	-1.0200182
1	0x3fe502eb	1.7891515
2	0x3fc7baf7	1.5603932
3	0x3ead0401	0.33792117
4	0xbf9b901f	-1.2153357
5	0x3fcad466	1.5846069
6	0x3fcc0561	1.5939142
7	0x3e41ffdf	0.18945263
8	0x3ff760e0	1.9326439
9	0xbf18bbc7	-0.59661525
10	0x3fae18f5	1.3601366
11	0x3ccdbc47	0.025114192
12	0x3f7d590a	0.9896399
13	0xbec2ef90	-0.38073397
14	0x3ec30ba5	0.38094822
15	0x3dc05e49	0.093929835
16	0xbe27b561	-0.16377784
17	0xbdf84c54	-0.121239334
18	0x3d8cd298	0.06876105
19	0x3e68917a	0.22711745
20	0xbe93eae6	-0.2889015
21	0xbe85f6ce	-0.2616486
22	0xbe9ac15d	-0.3022565
23	0xbbd5cd00	-0.006524682
24	0x3da1eee2	0.079068914
25	0xbdd6c586	-0.10486893
26	0x3f103ce1	0.56342894
27	0xbe99b47a	-0.30020505
28	0x3fbed4bb	1.490867
29	0x3f5a9abe	0.8539237
30	0xbfb0c280	-1.3809357
31	0x3f8bddc6	1.0927055
32	0x3f8f1847	1.1179284
33	0xbea9fd5f	-0.3320112
34	0x3f6cd170	0.92507076
35	0x3becba80	0.007224381
36	0xbfa28ca8	-1.2699175
37	0x3c5ee94c	0.013605427
38	0x3f40f128	0.75367975
39	0xbf194a45	-0.5987895
40	0xbd22754c	-0.039662644
41	0xbfa966e3	-1.3234524
42	0xbf90642d	-1.1280571
43	0x3e8c90c5	0.274542
44	0x3ec6d5ca	0.38834983
45	0x4003f8b6	2.062055
46	0x3f413f03	0.75486773
47	0x3f1d744b	0.61505574
48	0x3df72781	0.12068082
49	0x3f3ddcaf	0.7416486
50	0xbf037704	-0.5135348
51	0x3de9c63c	0.11414763
52	0xbf2841c9	-0.6572538
53	0xbf6e2acd	-0.9303406
54	0x3f9a912c	1.2075553
55	0x40070eb8	2.1102734
56	0x3f44e722	0.7691518
57	0x4005e7e6	2.092279
58	0x3fc578b0	1.5427456
59	0x3d968e30	0.07351339
60	0x3fb8e738	1.4445562
61	0xbf00c1ae	-0.5029553
62	0x3e7484ea	0.23878828
63	0x3f67e433	0.9058258

l2.bias f4 [8]
0	0xbdf3973e	-0.118940815
1	0x3c596e76	0.013270965
2	0xbe7b8ffe	-0.24566647
3	0x3f8c5f19	1.0966522
4	0x3f305582	0.68880475
5	0x3f9179ab	1.1365255
6	0x3f5a6383	0.8530809
7	0xbf4525e3	-0.77010936

l3.weight f4 [19, 8]
0	0x3f66c1df	0.90139574
1	0xbf2128fb	-0.62953156
2	0xbe1dafc1	-0.15399076
3	0xbf7a5eab	-0.978007
4	0xbc4b72ef	-0.012417539
5	0xbe83ddb0	-0.25755072
6	0xbf8a6dde	-1.0814779
7	0xbf2ab4c4	-0.66682076
8	0x3f48cc3e	0.7843665
9	0xbff2b3d7	-1.8961133
10	0x3e839a97	0.2570388
11	0x3f594a92	0.8487941
12	0xc01cc48e	-2.4494967
13	0xbf05e59c	-0.5230348
14	0xbff7e001	-1.9365236
15	0x3e994c3b	0.29940972
16	0x3a6e5257	0.0009091249
17	0xc03a4d13	-2.9109542
18	0xbe8145e0	-0.25248623
19	0x3c2ba237	0.010475687
20	0xbf81c635	-1.0138613
21	0x3f005a21	0.50137526
22	0x3fa8583b	1.3151926
23	0xc0436ec2	-3.0536351
24	0x3e81ca06	0.25349444
25	0xc028d33b	-2.6378925
26	0x3e13f4aa	0.144488
27	0xbf8b17c5	-1.0866629
28	0xc03f591b	-2.9898136
29	0xbf992f7a	-1.1967614
30	0x3fa97602	1.3239138
31	0x3e11bdb6	0.14232525
32	0x3f3e2ca3	0.7428686
33	0xbfab24c1	-1.3370591
34	0x3d8c5ecc	0.068540186
35	0xc0227a04	-2.5386972
36	0xbeb96952	-0.36213166
37	0xbfa19a1d	-1.2625157
38	0x3e65162a	0.22371736
39	0x3ea665fe	0.3249969
40	0xbcf61186	-0.030037653
41	0x3e85c5ac	0.26127374
42	0x3ea6c6f7	0.32573673
43	0xc02eb49c	-2.7297735
44	0x3f0c24a5	0.54743415
45	0xbf26a06e	-0.65088546
46	0xbd8c91de	-0.068637595
47	0xbed2c379	-0.4116476
48	0xbe779677	-0.24178492
49	0x3f2f0c76	0.6837839
50	0x3e815a8f	0.25264403
51	0xbf40211b	-0.75050515
52	0x3ee59222	0.44838053
53	0xc0377309	-2.8663962
54	0xc01fe980	-2.4986267
55	0x3eb6aa11	0.35676625
56	0xbeb13579	-0.3461111
57	0x3ecc2ab6	0.39876336
58	0x3e789f0e	0.24279425
59	0xbfdd6843	-1.7297443
60	0x3f276edc	0.65403533
61	0xc043c1cf	-3.0587041
62	0x3d840e76	0.06448071
63	0x3da6ad04	0.08138469
64	0xbfa024b2	-1.2511199
65	0x3e91708a	0.28406173
66	0x3e29eda6	0.16594562
67	0x3f0336d2	0.51255524
68	0xbf3bf7f4	-0.7342522
69	0xbd8aeea2	-0.06783797
70	0xc02423aa	-2.5646768
71	0x3e9e5d26	0.30930442
72	0xbfc3eaaa	-1.5305989
73	0x3e159d49	0.14610781
74	0x399fec00	0.00030502677
75	0x3e37499e	0.17899176
76	0xbf52a78b	-0.822869
77	0xc00865de	-2.1312175
78	0xbe2ddb84	-0.1697827
79	0x3f0fa79e	0.5611514
80	0xbe87c86d	-0.265201
81	0xbed86ccd	-0.42270508
82	0x3cc16e10	0.023612052
83	0xbef967a5	-0.48711887
84	0xbf9a2552	-1.2042639
85	0x3f0c80f3	0.5488426
86	0xbc4c7353	-0.012478667
87	0xbf0496e1	-0.5179272
88	0x3f06ae8e	0.526101
89	0xbce1da57	-0.027569933
90	0x3e96931d	0.29409114
91	0xbf797234	-0.97439885
92	0x3ef9353e	0.48673433
93	0xbf32f0e2	-0.6989881
94	0xc055a7a4	-3.338357
95	0x3c966c99	0.01836233
96	0xbe691d19	-0.22765006
97	0xbe8de4d0	-0.27713633
98	0xbdd8e2e8	-0.10590154
99	0xbf0080e0	-0.5019665
100	0xbf8f57fc	-1.1198726
101	0xbedfd643	-0.43718156
102	0x3e8621f1	0.2619777
103	0x3e3e8d61	0.1860862
104	0x3edfbd89	0.4369929
105	0xbc6fc222	-0.014633687
106	0xbd0dcd70	-0.03461975
107	0x3e408123	0.18799262
108	0xbf9ed62d	-1.2409111
109	0xbfe65be2	-1.799679
110	0xbfe9b8ab	-1.8259481
111	0x3ed8d80f	0.4235234
112	0x3ea5d5b0	0.32389593
113	0xbe9a2e4c	-0.30113447
114	0x3e92c2e7	0.28664324
115	0xbf7ffda6	-0.9999641
116	0xbfa2b013	-1.2709984
117	0xc02ba13d	-2.6817162
118	0xbd9ea5d3	-0.07746472
119	0x3f0a14a7	0.5393776
120	0xbf10df39	-0.5659061
121	0xc00004c3	-2.0002906
122	0xbea1da6b	-0.31611952
123	0x3faf44e1	1.3692895
124	0xc0353725	-2.8314908
125	0x3f81a21c	1.0127597
126	0xc004cb37	-2.0749032
127	0xbfbce934	-1.4758668
128	0xc029511c	-2.6455755
129	0x3e7e60b8	0.24841583
130	0xbd071170	-0.032975614
131	0x3dbdf4c0	0.09275198
132	0x3f2a562c	0.6653774
133	0xbe507442	-0.20356849
134	0x3f27e774	0.65587544
135	0xbf891d47	-1.071206
136	0x3f1b1d7b	0.6059186
137	0xc02547eb	-2.5825145
138	0x3cf01b50	0.029309899
139	0xc0383ddd	-2.8787758
140	0xbfac9a58	-1.3484602
141	0x3e9aae61	0.30211166
142	0x3ed69267	0.4190857
143	0xbeb804b7	-0.35941097
144	0x3f233935	0.63759166
145	0xbfe21217	-1.766177
146	0xbe93e990	-0.28889132
147	0xbfb8e8b1	-1.4446012
148	0x3f148a6c	0.58023715
149	0x3f64cdc4	0.89376473
150	0xc00ba9c5	-2.182237
151	0xc02598df	-2.5874555

l3.bias f4 [19]
0	0x3e3e7262	0.18598321
1	0x3e475286	0.19465074
2	0x3f6496e6	0.8929275
3	0xbc77a11a	-0.015114093
4	0xbf0fcd2b	-0.56172436
5	0x3ec5a8a0	0.38605213
6	0xbe954e9a	-0.2916153
7	0xbe9771cb	-0.29579005
8	0x3e5a4c75	0.21318229
9	0xbe8c871a	-0.27446824
10	0x3d691756	0.05690702
11	0xbc944559	-0.018099474
12	0x3d79d437	0.0609934
13	0xbed0ee55	-0.40806833
14	0xbf287d40	-0.65816116
15	0x3e5172d2	0.20453957
16	0x3ed44b38	0.41463637
17	0xbf1948c1	-0.5987664
18	0x3e10babb	0.14133732
