model_data.pth (torch, 3799 bytes, 6 tensors)

l1.weight f4 [8, 27]
000000 a1 e4 c5 3e 83 de 25 3e 6c d2 c1 bd 62 31 90 3f
       0.38650993 0.16198163 -0.09463963 1.126507
000010 c4 a3 03 bd e1 be 86 3e 85 25 e2 3e 31 38 e6 bd
       -0.0321386 0.26317504 0.4416925 -0.112411864
000020 36 b4 81 bd 5e b6 e8 bd b8 ad 4c bd fc 7f b0 bb
       -0.06333201 -0.11362909 -0.04997036 -0.0053863507
000030 a2 a2 b1 bd d2 67 29 be 39 e4 1b 3e 6e dd ae 3e
       -0.08673598 -0.1654351 0.15223779 0.34153312
000040 cb 62 45 3f a9 5f 29 be 48 92 59 3f 7c b5 23 3f
       0.7710387 -0.16540398 0.8498883 0.639488
000050 3d b8 e2 3e b8 28 04 3f 75 17 55 be 06 0e 63 be
       0.44281188 0.5162463 -0.2080973 -0.22173318
000060 10 94 23 3d 5b f9 2a be 05 54 44 3e d9 e2 cb 3e
       0.039936125 -0.16696684 0.19172676 0.3982151
000070 66 96 4d 3d d9 a4 85 be 0c 17 a6 bd 41 76 a7 3d
       0.05019226 -0.2610233 -0.081098646 0.08176852
000080 58 95 0b 3e 6e 3f 98 3e 36 c2 09 be 9d 58 2f bd
       0.13631189 0.29735893 -0.13452992 -0.042809118
000090 ad 4e 3e bd c0 71 88 bd 74 a0 0e bd 18 19 10 be
       -0.04646175 -0.06662321 -0.03482099 -0.14072073
0000a0 e1 f3 8e be a9 a6 07 3f 64 7f 55 3e a4 5b b6 be
       -0.2792044 0.5298868 0.20849377 -0.3561679
0000b0 e5 3d 92 3e 20 03 ea 3e f0 3f 02 be 7c e3 8e 3e
       0.28562847 0.4570551 -0.12719703 0.27907932
0000c0 53 24 19 3f 4a 49 54 3f 3a 5f 7b 3f ca 72 33 be
       0.5982105 0.8292433 0.9819218 -0.17524257
0000d0 e4 a7 a3 bd 38 44 0a 3f 42 64 e3 bd 81 e8 04 bf
       -0.07991007 0.54010344 -0.11103107 -0.5191727
0000e0 47 d0 86 be a0 56 3a 3f ca df f2 be 4f 0f 67 be
       -0.26330778 0.7278843 -0.47436363 -0.22564434
0000f0 bf 28 fa 3c 14 a6 87 be 7a 80 48 3f e9 33 e9 be
       0.030537007 -0.26493895 0.7832104 -0.45547417
000100 d1 1b a0 be cb 35 28 bf cd 52 3d bf 66 3e 67 be
       -0.31271222 -0.6570708 -0.7395447 -0.22582397
000110 8c 2a 39 be d2 13 08 bd 06 4b 05 3f 6c 70 19 be
       -0.18082637 -0.033222027 0.520676 -0.14984292
000120 b9 bd 0f be e4 0a 20 3f 7b 96 c0 bd 81 e1 2b be
       -0.14037217 0.6251662 -0.09403702 -0.16785242
000130 d6 6e fd be 9e ee 3c bf 7d e1 90 be b5 62 61 be
       -0.49498624 -0.738016 -0.28297034 -0.2201031
000140 d8 a3 aa 3e 3d c4 ea 3e 40 9a 9a 3e 55 c5 2b 3e
       0.33328128 0.45852843 0.30195808 0.16774495
000150 7a 07 24 be 6d 6b bd 3e f3 45 c7 3e ba 40 63 3e
       -0.16018477 0.36996022 0.38920555 0.2219266
000160 47 5d cd 3e 10 a2 52 bf 80 a7 24 3f 1b 3d d2 3e
       0.40110227 -0.8227854 0.64318085 0.41062245
000170 b8 95 1d 3f 06 e0 5c 3f 6d cf 57 3e be aa 84 3e
       0.6155658 0.8627933 0.2107522 0.25911516
000180 f9 a4 a3 3e 0d 19 a1 be 71 3c 48 bd f7 ef b5 3e
       0.31961802 -0.31464425 -0.048885766 0.3553464
000190 59 9b df be a6 01 54 3e a7 47 d1 3e 68 15 18 3e
       -0.43673208 0.20703754 0.4087498 0.14851916
0001a0 42 cd e8 3e 05 14 ba 3e 05 54 1a 3f aa bf d6 3e
       0.454691 0.363434 0.60284454 0.41943103
0001b0 71 8d af 3e 20 6a e7 bb 50 cc 84 be 8b 01 33 be
       0.342876 -0.0070622116 -0.25937128 -0.17481057
0001c0 c4 61 57 bd 67 fb bf 3e e1 de d8 3e 28 f6 52 bd
       -0.05258347 0.37496492 0.42357543 -0.051504284
0001d0 98 4b cb bc f9 b0 00 be 68 22 5d 3f 3c 16 36 be
       -0.02481632 -0.1256751 0.86380625 -0.17781919
0001e0 a8 d4 1c bc a9 5e 90 bd 07 78 c8 3e 15 60 e0 3e
       -0.009572186 -0.07049305 0.39154074 0.43823305
0001f0 44 d9 48 bd ea 3d e6 3e e4 6d 03 3f 29 ca 7c be
       -0.049035326 0.44969112 0.51339555 -0.24686493
000200 4d 10 a3 3e 9c 2c 01 3f ef 45 29 3f b2 d0 2c 3f
       0.31848374 0.50458694 0.66122335 0.67505944
000210 8d 64 3d 3f 58 e9 0d be 7c 89 ac 3e 35 f5 ea 3e
       0.73981553 -0.13858545 0.33698642 0.45890203
000220 12 93 b0 3d ba f3 12 3f 62 0c 42 bd de e2 20 be
       0.086218014 0.5740315 -0.04737509 -0.15711543
000230 66 1f 1b 3f 17 6c a3 3e 5b 34 ab bd 5e b3 87 bd
       0.60594785 0.31918404 -0.083595954 -0.066260085
000240 24 2c 31 3f 4a 0f 76 bd 72 a4 3f 3f a4 f4 af bd
       0.6920798 -0.060073175 0.748603 -0.08591583
000250 40 01 d2 3e 85 76 0c 3f b7 6e e5 3e 74 a8 09 be
       0.4101658 0.54868346 0.4481103 -0.13443166
000260 71 7f 09 be ac 61 1b 3f 24 f0 1c be 64 3c ef 3e
       -0.13427521 0.6069591 -0.15325981 0.46725762
000270 ab 02 cd 3e af df 9d be 1f ab 8e be 61 66 b3 ba
       0.40041098 -0.3083472 -0.2786493 -0.0013687128
000280 12 e4 36 be c3 be a8 3e b6 bd b3 3e 4f 01 04 3f
       -0.1786044 0.3295804 0.35105675 0.51564497
000290 da dd bc 3e bc da b8 be 8a 21 0b 3f 15 4e c8 3e
       0.3688801 -0.3610438 0.5434805 0.39122072
0002a0 75 91 8e 3e bc 92 54 3f 4f 2c dc be 62 c7 59 3f
       0.2784535 0.830364 -0.43002555 0.8506986
0002b0 70 42 8a be 49 f0 17 3f 8c ee 83 3f 81 f2 f9 3e
       -0.27003813 0.5935102 1.0307174 0.48817828
0002c0 46 3c 1d 3f 83 b5 0b 3f be 2b 48 be 96 54 a2 be
       0.61420095 0.5457384 -0.19547936 -0.3170516
0002d0 45 0a 18 3f 02 e3 ad be fe e2 c1 3e 06 77 10 3f
       0.5939067 -0.33962256 0.37868494 0.56431615
0002e0 99 4a e5 be 18 27 db be ee 8f 21 be d5 a2 58 3f
       -0.44783476 -0.42803264 -0.15777561 0.8462346
0002f0 05 0c 36 3e 65 ff 27 3f 4a ba 46 be b7 51 73 be
       0.17778023 0.65624076 -0.19407001 -0.2376164
000300 15 1f bb 3e ce 7d 97 be 22 ce af 3e 00 20 16 3e
       0.3654715 -0.2958817 0.34336954 0.14660645
000310 40 ec 51 be be da 90 3f 86 3f 00 bf c8 0b 0b 3f
       -0.20500278 1.1316755 -0.5009693 0.5431485
000320 b7 2c 00 bf 80 41 00 bf 11 09 bd be 09 6b a2 3e
       -0.5006823 -0.50099945 -0.3692098 0.31722286
000330 ba 7e 6d 3e b8 c9 04 3f c3 7e 2a 3f 9f b5 1b 3e
       0.23192874 0.518703 0.66599673 0.15206002
000340 f9 07 ff 3e d0 95 72 3e 4c df 98 3e e3 04 10 3f
       0.4981077 0.23689961 0.29857862 0.56257457
000350 c6 1a 26 3f 0e d1 24 3f 2a 16 9d be ee 1d 0e 3f
       0.64884603 0.6438149 -0.30680972 0.5551442

l1.bias f4 [8]
000000 c4 75 d4 b8 f4 2e b1 b8 29 45 3d 3f bf 29 72 3f
       -0.00010130883 -8.4487634e-05 0.73933655 0.9459495
000010 f2 f8 6a 36 e8 86 28 b7 a3 1a db 3e a0 3e 00 3f
       3.5013622e-06 -1.0044991e-05 0.4279376 0.5009556

l2.weight f4 [8, 8]
000000 40 df f7 3e f4 c1 6b 3f 4b 7f 4e bf df 8b 58 3f
       0.48412514 0.92092824 -0.80662984 0.84588426
000010 d7 e5 61 3f 60 d7 8c 3f 52 52 49 3f ba e8 6e 3e
       0.8824133 1.1003227 0.78641236 0.23330966
000020 fd 21 15 bf f0 de 27 bf e9 ce 90 bd a8 fa 36 3f
       -0.58254987 -0.6557455 -0.07070715 0.7147622
000030 7c 94 22 bf 74 f5 c8 3d f3 83 3d 3f 1c 72 a3 be
       -0.6350782 0.098124415 0.74029464 -0.31922996
000040 69 86 8b 3f 7a 18 4a 3e fb cc c6 3f 59 f6 b0 3e
       1.0900394 0.197359 1.5531305 0.34562948
000050 94 1d fb bd 5b a5 44 bf a9 9a 60 bf 80 2c 9d 3f
       -0.12261501 -0.7681481 -0.8773599 1.2279205
000060 fb 95 85 bf 17 42 65 bf e8 82 3a 3c c6 b3 71 3f
       -1.0436395 -0.8955397 0.01138375 0.9441494
000070 ab 8b 68 bf a8 5b 6c 3e e8 37 80 3f a7 0f 21 bf
       -0.90838116 0.23081839 1.0017061 -0.6291451
000080 08 42 cd be c3 9a 1f bf bd 22 c1 be 2d b6 5d 3f
       -0.4008944 -0.6234552 -0.37721816 0.86606103
000090 29 d3 16 bf 27 d4 9b 3e f1 aa 6a 3e 72 cc fd be
       -0.58915955 0.30435297 0.22916771 -0.49570042
0000a0 11 56 9c be b4 74 85 be 60 6a 71 bf 90 5d 3a 3f
       -0.30534413 -0.260656 -0.9430294 0.72799015
0000b0 89 5f 82 bd 6b b1 2b 3f 01 a3 97 3f 81 7d 40 bf
       -0.06365878 0.67067593 1.184662 -0.75191504
0000c0 11 72 a3 3f 72 57 08 3e 5a 53 10 be f3 09 ef 3e
       1.2769185 0.13314608 -0.14094296 0.46687278
0000d0 d7 ed 90 3e 98 4c 99 3f 33 e7 73 3f 46 5c d4 be
       0.28306457 1.19765 0.95274657 -0.4147665
0000e0 1a ad c9 be de f2 8e 3f 3a c5 2e bf 33 5c 88 3f
       -0.3938988 1.1167867 -0.68269694 1.0653137
0000f0 50 98 a4 3f ca fd ef be bb 03 ee bd ab e9 c3 3e
       1.2858982 -0.46873313 -0.11621805 0.38264212

l2.bias f4 [8]
000000 cf 44 28 bf de 3d 0a 3f fc 12 99 3f bd aa 64 3f
       -0.65729994 0.5400065 1.1958919 0.89323026
000010 c5 0f 3d 3f c3 79 62 3d 8c 8d 09 bf 52 22 91 3e
       0.7385219 0.055291902 -0.5373161 0.28346497

l3.weight f4 [5, 8]
000000 a6 e4 e3 bf 1b 75 15 3f ce 04 d4 3e a2 8f 9d 3f
       -1.7804153 0.58381814 0.41409916 1.2309458
000010 f6 4a 09 3f 59 a0 b0 be d5 31 b2 bf cf 6b 54 bd
       0.53630006 -0.34497336 -1.3921458 -0.051860627
000020 c0 58 a2 bf 91 09 17 bf f1 80 96 3f d3 00 9d bf
       -1.2683334 -0.5899897 1.17581 -1.2265877
000030 76 33 3a bf c5 9f 57 bf ab 36 88 3e c6 e9 8c bf
       -0.72734773 -0.84228164 0.26604208 -1.1008842
000040 70 23 81 3d 72 9a d3 3e f4 a9 70 bf f1 a1 37 3f
       0.06305587 0.4132877 -0.9400933 0.7173148
000050 36 3b 31 3f 70 bf 46 3f 62 99 b0 3e 2d 4d 14 bf
       0.69230974 0.7763586 0.34492022 -0.5793026
000060 da 92 d9 3e 6f 4c 9c bd b0 06 84 bf 2c 66 36 bf
       0.4249485 -0.07631766 -1.0314541 -0.7124965
000070 74 9d 3c bf 67 c1 08 3e 6e c1 46 3f 85 51 0b 3e
       -0.73677754 0.13355027 0.776389 0.13605316
000080 13 a6 60 3e 48 1b f9 be 5e 9e ff 3d 62 8a 9c bf
       0.21938352 -0.48653626 0.12481378 -1.2229731
000090 18 94 44 be 43 f7 76 bf 43 5a 4e bf 28 58 62 3f
       -0.19197118 -0.9647104 -0.8060648 0.88415766

l3.bias f4 [5]
000000 13 d9 97 bd 7e 70 ce 3e 93 35 a4 be 88 1f 36 be
       -0.074144505 0.403202 -0.32072124 -0.17785466
000010 16 95 ca bd
       -0.09891717
