model_data.pth (torch, 5847 bytes, 6 tensors)

l1.weight f4 [8, 72]
0	0xbe780291	-0.24219729
1	0xbd9c2aa8	-0.076253235
2	0x3e8770e2	0.2645331
3	0xb991a2e1	-0.0002777791
4	0x3eb51540	0.35367775
5	0xbe1c9d8a	-0.15294471
6	0xbf19a62c	-0.60019183
7	0xbdb2039d	-0.086920954
8	0xbde6d652	-0.11271347
9	0x3d7b0845	0.061287183
10	0xbdbf5801	-0.09342957
11	0x3ec8f4fa	0.39249402
12	0xbdd0fd46	-0.10204558
13	0xbeea219a	-0.4572876
14	0x3eadf4ce	0.33975834
15	0xbe3bde65	-0.18346556
16	0xbe3b5ae3	-0.1829639
17	0xbd4e5b96	-0.050380312
18	0xbe52d24b	-0.20588033
19	0x3d671ccc	0.056423947
20	0xbf19b618	-0.6004348
21	0x3c4b9032	0.012424516
22	0xbc897537	-0.016779525
23	0x3d8f49ad	0.069964744
24	0xbd5a0286	-0.053225063
25	0xbdcbe852	-0.09956421
26	0xbd6729e6	-0.05643644
27	0x3d44c848	0.048042566
28	0xbb9deee7	-0.004819739
29	0x3dc6d151	0.09707893
30	0x3e9c2c81	0.30502704
31	0xbea20f0c	-0.31652105
32	0xbde666f3	-0.11250105
33	0xbdec3380	-0.1153326
34	0xbe4c8a28	-0.19974577
35	0xbeb80aed	-0.35945836
36	0xbe160fad	-0.14654417
37	0x3e5b019d	0.21387334
38	0xbd4f56ba	-0.05061982
39	0x3e65b0f7	0.22430788
40	0xbd7a746f	-0.061146196
41	0xbb901d8f	-0.004398055
42	0x3ed684a4	0.41898072
43	0xbdad1b7b	-0.08452507
44	0x3ebab3ce	0.36465305
45	0x3f5018bc	0.8128774
46	0xbe1271a7	-0.14301167
47	0x3ebc5963	0.36786947
48	0x3e06961d	0.13143201
49	0xbdddbd00	-0.108270645
50	0xbe2b05f7	-0.16701494
51	0xbde3ae31	-0.11117209
52	0x3c426037	0.01186376
53	0x3dcb1513	0.09916129
54	0xbe218a83	-0.15775494
55	0xbdcc1585	-0.09965042
56	0x3ec7a094	0.389897
57	0x3ee6f7aa	0.45110828
58	0xbe829370	-0.2550311
59	0x3e8407ad	0.25787106
60	0xbe135c37	-0.14390646
61	0xbdcfb056	-0.10141055
62	0x3d8ffbf3	0.070304774
63	0x3a6e1a31	0.00090828823
64	0xbd56e150	-0.05246097
65	0x3cbc3f28	0.022979334
66	0x3e438322	0.19092992
67	0x3eabe23f	0.3357105
68	0x3f8561e8	1.0420504
69	0x3f4280b1	0.7597762
70	0x3c212231	0.009834812
71	0xbee0c500	-0.439003
72	0x3f06b922	0.5262624
73	0xbe79bc80	-0.24388313
74	0x3e90055d	0.28129092
75	0xbe7cd2d7	-0.24689804
76	0xbd48a7b6	-0.048988067
77	0x3e28af28	0.16473067
78	0xbe001468	-0.12507784
79	0x3e6622b0	0.2247417
80	0x3e8421ae	0.25806946
81	0xbe46b967	-0.19406663
82	0x3d49b47c	0.04924439
83	0x3e668795	0.22512658
84	0x3e66d671	0.2254274
85	0xbe65d673	-0.22445087
86	0x3f138582	0.5762559
87	0x3d91c756	0.071180984
88	0x3f208fc2	0.62719357
89	0xbd9d06bf	-0.07667302
90	0xbe70b08a	-0.23504844
91	0xbe458f95	-0.19293053
92	0xbe163c2a	-0.14671388
93	0x3d95de90	0.07317841
94	0xbe86cf47	-0.26330015
95	0xbf2cd4d1	-0.6751223
96	0xbf10bbd1	-0.56536585
97	0x3e5aa712	0.21352795
98	0xbee2993a	-0.44257528
99	0xbf121145	-0.570576
100	0xbf1219c2	-0.57070553
101	0x3dbc5b51	0.09197105
102	0x3ea009b2	0.31257397
103	0xbcbb0506	-0.022829544
104	0x3f6216c0	0.88315964
105	0x3e213e90	0.15746522
106	0x3df11f86	0.11773591
107	0xbe8f2b19	-0.27962568
108	0x3f1faf86	0.623772
109	0x3e858372	0.26076847
110	0x3df91519	0.12162227
111	0xbca647c3	-0.02029789
112	0xbdc2f392	-0.095191136
113	0x3e7bd0b2	0.2459133
114	0x3e7a95a7	0.2447115
115	0xbe829981	-0.2550774
116	0x3e6aac78	0.22917354
117	0x3f29afb7	0.66283745
118	0x3d7c638d	0.061618377
119	0x3eda53e1	0.4264212
120	0x3e9b51af	0.30335757
121	0x3ec0b7da	0.37640268
122	0xbe89c7ca	-0.2691024
123	0xbd800256	-0.062504455
124	0xbe7ea6e3	-0.2486835
125	0xbdd19370	-0.102331996
126	0x3f0cbe47	0.5497784
127	0x3ece3d82	0.40281302
128	0x3ea3e15e	0.3200788
129	0x3ed4e61e	0.41581815
130	0x3f384b8f	0.71990293
131	0x3e3fce9b	0.18731157
132	0x3ec18ef6	0.37804383
133	0x3e6b6bf4	0.229904
134	0xbe86217c	-0.26197422
135	0xbe377507	-0.17915736
136	0x3ec95375	0.39321485
137	0x3e6fbcec	0.23411912
138	0x3e4f7f07	0.20263301
139	0x3ebbbd2c	0.36667764
140	0x3f369238	0.7131686
141	0x3f089e34	0.533664
142	0xbf10b864	-0.5653136
143	0x3cc3ba6a	0.0238926
144	0xbe07dcc1	-0.13267805
145	0xbd8cd7d6	-0.06877105
146	0x3ed44e4c	0.41465986
147	0x3f16e530	0.5894346
148	0x3f2553cb	0.6458098
149	0x3d9f0709	0.07765014
150	0xbec69fc2	-0.3879376
151	0x3e2beab7	0.16788755
152	0x3f054238	0.52054167
153	0x3efe8153	0.49708042
154	0x3e0cdf43	0.13757043
155	0x3e095304	0.13410574
156	0x3ed417b9	0.4142435
157	0x3ef04fd0	0.46935892
158	0x3dfdf75e	0.12400697
159	0x3d140b2f	0.036143478
160	0xbe198db2	-0.14995459
161	0xbe66a196	-0.22522578
162	0xbe0e10c8	-0.13873589
163	0x3ed858db	0.4225529
164	0xbed4e2e3	-0.4157935
165	0x3e303f20	0.1721158
166	0xbe6e9de3	-0.23302417
167	0xbf427a28	-0.75967646
168	0x3f4b8e01	0.79513556
169	0xbe83c2fb	-0.25734696
170	0x3f5105a0	0.8164921
171	0x3f38c997	0.721826
172	0x3f3a82dd	0.7285593
173	0x3f02feae	0.5116986
174	0x3dc445b4	0.09583607
175	0x3d32d12b	0.04365651
176	0xbec21378	-0.37905478
177	0xbcc5c298	-0.024140641
178	0x3e15c535	0.1462601
179	0x3ee46239	0.44606188
180	0xbe90fbb0	-0.28317022
181	0xbe0c7697	-0.13717113
182	0xbe8a2478	-0.26980948
183	0xbd89aede	-0.067228064
184	0xbeb8d703	-0.3610154
185	0xbe15424f	-0.14576076
186	0x3ddb3d51	0.107050546
187	0xbdca8d60	-0.098902464
188	0x3edeb94d	0.43500748
189	0x3f56d68c	0.8392112
190	0x3e512152	0.20422867
191	0xbcbade18	-0.02281098
192	0xbd025b28	-0.031825215
193	0x3f0e27f6	0.55529726
194	0xbe175b22	-0.14780858
195	0xbe7fe863	-0.24990992
196	0xbe301a5f	-0.1719756
197	0x3e182f49	0.14861788
198	0xbe89be4d	-0.26903
199	0x3f1657a2	0.5872747
200	0x3ef6cede	0.48204702
201	0x3dff6b50	0.1247164
202	0xbe210e10	-0.1572802
203	0xbeee397a	-0.46528226
204	0xbf1cd152	-0.612569
205	0xbdc8d037	-0.09805339
206	0xbe1f6ca5	-0.15568788
207	0x3f0d72c2	0.5525323
208	0x3f212fe4	0.629637
209	0xbe6f5837	-0.23373495
210	0x3be45741	0.0069684093
211	0x3d7b5ddf	0.06136882
212	0xbed93b8f	-0.42428252
213	0xbf46b698	-0.77622366
214	0x3f2c10cf	0.6721315
215	0xbb670270	-0.0035249256
216	0x3e8fd9cd	0.28095856
217	0x3e935947	0.2877905
218	0xbe9cceee	-0.30626625
219	0x3cf79ba8	0.03022559
220	0xbe89a117	-0.26880714
221	0x3e31253a	0.17299357
222	0x3f8cc4bf	1.0997542
223	0x3e65952b	0.22420184
224	0xbe8b4791	-0.27203038
225	0x3e236fec	0.15960664
226	0x3e8ccd1c	0.27500236
227	0xbcb9086f	-0.02258703
228	0xbe973c86	-0.29538363
229	0x3ec2de06	0.38060015
230	0xbe834be7	-0.25643846
231	0x3e321035	0.17388995
232	0x3e315c3e	0.17320344
233	0xbc9b48dd	-0.018955642
234	0xbce37809	-0.027767198
235	0x3dbaf9f5	0.09129707
236	0x3f915208	1.1353159
237	0x3ebbd43b	0.36685356
238	0x3c973a8e	0.018460538
239	0xbdfad261	-0.12247158
240	0xbdc9ae30	-0.09847677
241	0xbe583fb5	-0.21118052
242	0xbd5591b9	-0.052140925
243	0x3d1721bc	0.036897406
244	0xbd270106	-0.04077246
245	0x3e9d48e3	0.3071967
246	0x3b177cb0	0.002311509
247	0x3ee4e498	0.44705653
248	0x3ed32f16	0.4124686
249	0x3f27ebb8	0.65594053
250	0x3eae8030	0.34082174
251	0x3ecd5603	0.40104684
252	0x3e7a3b6a	0.24436727
253	0xbceed848	-0.029155865
254	0x3f2aab00	0.66667175
255	0xbe11a460	-0.1422286

l1.bias f4 [8]
0	0x3f199dd9	0.6000648
1	0x3f121952	0.57069886
2	0x3f427a86	0.75968206
3	0x3f789656	0.97104394
4	0x3f59343e	0.8484534
5	0x3f082d97	0.53194565
6	0x3f09165a	0.5354973
7	0x3f059aab	0.5218913

l2.weight f4 [8, 8]
0	0x3f9a910c	1.2075515
1	0x3f9eb131	1.2397825
2	0x3f3e8ba7	0.7443184
3	0xbf491237	-0.7854342
4	0x3ee8de84	0.45482266
5	0x3fcad1b0	1.5845242
6	0x3efe3602	0.4965058
7	0xbf775dc0	-0.96627426
8	0x3fa695d8	1.3014479
9	0x3dd42a2d	0.10359607
10	0xbe9c9e24	-0.30589402
11	0x3df0c8b7	0.11757033
12	0xbf088d60	-0.5334072
13	0x3e6183cb	0.22022931
14	0x3fae2668	1.3605471
15	0x3fa48d5d	1.2855641
16	0xbf82ac9f	-1.020893
17	0x3f3e7abf	0.74406046
18	0xbdec9fdb	-0.115539275
19	0x3fbcb8cf	1.4743899
20	0xbf3bf541	-0.734211
21	0xbe4be337	-0.19910894
22	0xbe6e3ae0	-0.23264647
23	0x3e89430a	0.2680896
24	0x3f03c271	0.5146857
25	0x3ddcf80c	0.10789499
26	0x3fe336f4	1.7751145
27	0x3e9317c2	0.28729063
28	0x3e426a4e	0.18985865
29	0xbf729c31	-0.9476958
30	0x3edefcc4	0.4355222
31	0xbf1fca27	-0.62417835
32	0x3fb66fe9	1.4252902
33	0x3edd9051	0.43274167
34	0x3ed0e609	0.40800503
35	0x3e1090e7	0.14117776
36	0xbf7a5afc	-0.9779508
37	0xbde522d3	-0.11188283
38	0x3e1d5869	0.15365757
39	0x3f6f0ec6	0.9338192
40	0xbdfe4697	-0.12415808
41	0xbe4d0e91	-0.20025088
42	0x3f9ff399	1.2496215
43	0x3f16d791	0.5892268
44	0xbe1cf370	-0.15327239
45	0xbf71d93c	-0.944721
46	0x3da73246	0.08163886
47	0x3c9adee8	0.018905118
48	0x3e586a6d	0.21134348
49	0xbf618faf	-0.8810987
50	0x3f9a37b1	1.2048246
51	0xbec60eb1	-0.38683084
52	0x3f399960	0.72499657
53	0xbf13be92	-0.5771266
54	0x3fbaa98d	1.4582993
55	0x3e3e42c5	0.18580158
56	0xbf03f347	-0.51543087
57	0xbf3be7af	-0.73400396
58	0x3f30ca4a	0.6905867
59	0x3fa2ab60	1.270855
60	0x3fd3045a	1.6485703
61	0x3ecb5845	0.39715782
62	0x3e092bd4	0.13395625
63	0xbe37683f	-0.1791086

l2.bias f4 [8]
0	0x3f17f055	0.5935109
1	0xbcfd34f4	-0.03090904
2	0x3f428c8c	0.7599571
3	0x3e431b5b	0.19053404
4	0xbe9197c8	-0.28436112
5	0x3efc419e	0.49268812
6	0x3e1eebaf	0.15519594
7	0x3f372bf9	0.7155147

l3.weight f4 [8, 8]
0	0xbfdb5a84	-1.7136998
1	0xbfe38782	-1.7775729
2	0x3f8ad1c7	1.0845269
3	0x3e877557	0.2645671
4	0xbfadac9c	-1.3568301
5	0x3eb2d4e6	0.34928054
6	0xbd76efba	-0.060287215
7	0x3f3872ef	0.72050375
8	0xbee9e843	-0.45685014
9	0xbf7ad580	-0.97982025
10	0xbf780bab	-0.96892804
11	0x3f2c6c00	0.67352295
12	0xbfdd34af	-1.7281703
13	0x3f0df475	0.55451137
14	0x3f3809b0	0.7188978
15	0x3eddd84d	0.43329087
16	0xbf554a2a	-0.8331629
17	0x3f16bbb7	0.5888018
18	0xbf9bc7c9	-1.2170345
19	0xbf4cd37b	-0.80010194
20	0xbf309bc6	-0.6898769
21	0xbf8a4e7f	-1.0805205
22	0x3f4a8681	0.79111487
23	0x3ec76ad9	0.38948706
24	0x3f1655e9	0.5872484
25	0xbea895be	-0.32926744
26	0x3f82f288	1.0230265
27	0xbf433aaf	-0.7626142
28	0xbf17a5ea	-0.5923754
29	0xbf414039	-0.7548862
30	0xbec1ecb5	-0.37875906
31	0xbf8a6178	-1.0810995
32	0xbfb3fa32	-1.4060729
33	0x3ecaf6dd	0.39641467
34	0x3f363749	0.7117811
35	0xbd8cbcf6	-0.06871979
36	0x3eb8fae9	0.3612893
37	0x3f1b2dbc	0.6061666
38	0xbe18f269	-0.14936222
39	0xbf41ab5b	-0.7565209
40	0x3f0036ce	0.50083625
41	0xbcd3ffa4	-0.025878735
42	0xbfaf218c	-1.3682113
43	0x3f4207db	0.75793236
44	0x3e4bcfbd	0.19903465
45	0xbf0b2e91	-0.5436793
46	0x3eacdf0f	0.3376393
47	0xbf99ba1d	-1.2009922
48	0x3f40c924	0.75306916
49	0xbfbd6360	-1.4795952
50	0xbfc1d5df	-1.5143393
51	0xbf4d8c63	-0.8029234
52	0xbf78e17f	-0.9721908
53	0xbf3289f0	-0.69741726
54	0xbf52226d	-0.8208378
55	0x3f47d308	0.78056383
56	0x3e8ff294	0.2811476
57	0x3ef5ebb0	0.48031378
58	0xbedb55ad	-0.42838803
59	0xbf5bb6ec	-0.8582599
60	0x3f6c80b8	0.9238391
61	0xbf4f6036	-0.8100618
62	0xbf4b668e	-0.7945336
63	0xbfe34a35	-1.7757021

l3.bias f4 [8]
0	0xbe0a667e	-0.1351566
1	0x3c6124b0	0.013741657
2	0x3e43f527	0.19136487
3	0xbdd2c2db	-0.10291072
4	0x3d66b6da	0.056326725
5	0xbeb3ff19	-0.35155562
6	0x3f04e558	0.5191245
7	0xbdbeb243	-0.093113445
