model_data.pth (torch, 7127 bytes, 6 tensors)

l1.weight f4 [8, 87]
00000000: 323f 17bf 9365 db3e 5196 3f3e 6022 ccbe
00000010: 588a 1cbe 9f02 c5be dd81 2ebe ff5c 61be
00000020: 16eb c73e a7d1 f5be b542 813f 1116 8f3e
00000030: 109a 413f 7c7a 443f 4b4e 1f3e 2989 633e
00000040: 9174 37bf 5e94 febe 94cb d63e d6ac c3be
00000050: 584e a8be 2581 b13e 6baa 5cbf f20e d8be
00000060: b0c4 5cbf 3aa8 5cbf d3b6 5cbf 1d42 163e
00000070: 768b 933e 5286 7cbe c1d9 9bbd 76b8 5cbf
00000080: 5cb8 6d3f 93eb b93f 8533 e13e 43d1 b03e
00000090: 8f30 ffbc bee7 4a3e c939 e13c 0a11 a43e
000000a0: 12ef 0e3f 94b9 8b3f 4381 143e 1558 92be
000000b0: a7c3 3fbf c44d fdbe 793e 133f c2ae b03e
000000c0: 546d e03c 4188 7b3e c7a4 e53e afbe 4bbf
000000d0: 8fff 1cbf 69ed a4be cbfa c5be 8b09 ac3e
000000e0: e3df 5cbe cfdf 873e ee7f 973e 11a1 e8be
000000f0: 9d31 f53e 90e6 963e c0bc 003f 0b1f 703e
00000100: 116d ba3e bf87 ddbe 2a0e 003d d08a c1be
00000110: d623 eb3d 7f70 d13e 20e3 563c 94e0 54be
00000120: aee5 5cbf ba55 bbbe 47df 443e e637 edbe
00000130: aaa4 30be 9f8d 06be 2727 3d3f de7e 57bf
00000140: e7ef 223e 70f9 8b3e 3b69 d23e a42b 603f
00000150: f3c3 3f3f 7ab5 55bf 28ac 23bf e3f5 623e
00000160: c5a5 c2bd 70ee 263f 8c97 113f 6ed0 753e
00000170: 8c14 343f 385e ac3e e5bb 5abf 3492 003f
00000180: ac17 283f 9e4a 003e f60f 983e c6da b8be
00000190: 004e ccbe 8cde 473e f1f9 d33e f80e fa3e
000001a0: b61a 283f e256 3b3e 5c12 233f 09b3 5abf
000001b0: 598a b0bd 7cfc 7f3f dc99 d7be a6a2 8a3f
000001c0: a623 743f ebaa 7e3f 72ac 0f3f f461 853d
000001d0: 23a8 09be 24fd 983e 4df6 b43f 7285 cb3f
000001e0: 25eb ca3f d8f3 483f 2bd4 4e3f 6bac 2e3f
000001f0: 5d34 f9be 37f7 aabe 13eb 2ebe 8f6b d8bc
00000200: cd01 3abf 0e15 e33e 4f90 963e 2359 643f
00000210: 1b1d 063f 9a74 283e 7994 45be 6233 aebe
00000220: 84e5 013f 65f7 d6be 2baa 0e3f f758 52bf
00000230: 0f8a 73bf 8a65 c8bd 663e b13f 18fc b53e
00000240: f16b c93b 4102 1b3d 6b3b 0f3f 3529 853f
00000250: 714f 7e3f 5358 edbc bef4 12bf 9c19 913e
00000260: c3ef 153f 3522 933e 5d5e 1b3f 6e2f 253f
00000270: 9958 933f 3ff9 9c3e a6cc 43bf da9c 32bf
00000280: 3484 9bbe 8dab bdbe 294e 2e3f cb1d 1c3e
00000290: da18 763f c54f d0be 7c75 e5be efcd 5b3f
000002a0: c358 7abe a034 f8bd f275 5abf 6e8a 7fbe
000002b0: d416 7a3f 3ff0 543e dd6e 16bf 136e 0e3f
000002c0: 67f5 1dba ddd2 d13e e390 523f 332c 283f
000002d0: fbd2 d9bd 5a8e 6b3f 464d 8e3e 4cfa 9f3e
000002e0: a571 173f b5b9 d13a 4e83 c83e 1a04 1cbe
000002f0: e1bb 35bf 9302 e53e 1990 4b3e 99e5 acbe
00000300: 8521 1b3f 45e3 e03e 4f14 5c3f 1284 073f
00000310: d076 ea3e 1df2 9fbe 7df8 e43e 7100 c73e
00000320: a300 ba3e fe3f 0f3f 38e4 dc3e 5957 e73c
00000330: 6832 10be cc05 f3be ec59 183f 089c ec3f
00000340: 83f1 333f ab29 303f 0f3a 933d d875 103f
00000350: f26a 2bbd c705 a93e f12c 7b3f c0f5 3a3f
00000360: 0a84 bd3e 1c56 133d 7fff 4f3f c142 163f
00000370: 838d 2a3e af9f 833e 2dfb ad3e 5d45 ea3e
00000380: e137 ac3e c5ad f93e 8320 fa3d c8c4 223f
00000390: 6b0e 13be 2aed 01bd 1dbb d83e 91aa a23f
000003a0: 4a2a 283f 5ffc 313f f272 f7be 6fcb 0dbf
000003b0: 0adb a1bf 11b3 2d3f 7efe 5b3e c152 d4be
000003c0: 24a8 133e 92b1 293f 9ea8 bb3c 00a9 7d3d
000003d0: da9c 933e 901c 31bf 157e 4abf d718 afbe
000003e0: 46ea d13e 1ed7 9b3e 5b74 9e3e cf9c 893f
000003f0: e8db 0e3e 913f 70be 07ac 273f 33c9 73be
-0.59080803 0.42850932 0.18709685 -0.39869976 -0.15287149 -0.38478562 -0.17041726 -0.22008131
0.39046544 -0.48011515 1.0098482 0.27946523 0.75625706 0.76749396 0.1555721 0.22220291
-0.7166224 -0.4972257 0.41952193 -0.382178 -0.32872272 0.34668842 -0.8619754 -0.42198902
-0.8623762 -0.86194193 -0.8621647 0.14673658 0.28817338 -0.24660614 -0.07609893 -0.86218965
0.92859435 1.4525017 0.4398462 0.34534654 -0.031151084 0.19814965 0.027493374 0.3204425
0.5583354 1.0916009 0.14502434 -0.28582826 -0.74907917 -0.49473393 0.575172 0.3450833
0.027395882 0.24563695 0.44852278 -0.79587835 -0.6132745 -0.3221238 -0.38667902 0.3360103
-0.21569781 0.2653794 0.2958979 -0.45435384 0.47889414 0.2947278 0.5028801 0.23449342
0.36411336 -0.4326763 0.031263508 -0.37801218 0.114814445 0.4090614 0.013115674 -0.20788795
-0.86287963 -0.36588842 0.19225799 -0.4633171 -0.17250314 -0.13139962 0.73887867 -0.8417796
0.15911828 0.27338743 0.4109591 0.8756659 0.7490837 -0.83480036 -0.63934565 0.22164111
-0.09504274 0.65207577 0.5687187 0.24005291 0.7034385 0.33665633 -0.85442954 0.5022309
0.6566112 0.12528464 0.29699677 -0.3610441 -0.3990326 0.19518489 0.41401628 0.48839545
0.6566576 0.18294862 0.6369989 -0.85429436 -0.08620138 0.99994636 -0.42109573 1.0830886
0.95366895 0.9947955 0.56122506 0.06512824 -0.13443045 0.2988063 1.4137665 1.5900099
1.585301 0.78497076 0.8079249 0.6823184 -0.48672763 -0.33391735 -0.17081861 -0.026418475
-0.72659 0.44352 0.29406974 0.8919851 0.5238816 0.1645073 -0.19294919 -0.34023577
0.5074084 -0.41985622 0.55728406 -0.82167 -0.95132536 -0.09784992 1.3847167 0.35543895
0.006146901 0.037843946 0.5595004 1.04032 0.9933997 -0.02897278 -0.57404697 0.2833985
0.5856897 0.28737035 0.6069086 0.64525497 1.1511413 0.3065891 -0.76484144 -0.69770586
-0.303743 -0.37044945 0.6808801 0.1524574 0.9613167 -0.4068586 -0.44816196 0.85861105
-0.24447922 -0.121194124 -0.8533622 -0.2495515 0.9769108 0.20794772 -0.58762914 0.5563671
-0.00060256425 0.40981188 0.8225233 0.6569244 -0.106359445 0.92014086 0.2779333 0.3124565
0.5915778 0.001600078 0.39162678 -0.1523594 -0.70989805 0.44728526 0.19879188 -0.3376892
0.6059802 0.43923393 0.8596849 0.529359 0.45793772 -0.31239405 0.44720832 0.38867524
0.3632861 0.5595702 0.43142867 0.028239893 -0.14081728 -0.4746536 0.5951221 1.8485117
0.7029039 0.6881358 0.07188808 0.56429815 -0.041850038 0.3301222 0.9811545 0.73031235
0.370148 0.035970792 0.8124923 0.5869561 0.16655545 0.25707766 0.33980694 0.45756045
0.33636382 0.48765388 0.12213232 0.63581514 -0.14360969 -0.031720318 0.42330256 1.2708303
0.6568953 0.6952571 -0.48329884 -0.5538854 -1.264497 0.6785136 0.214838 -0.41469386
0.1441961 0.66286576 0.022907551 0.06192875 0.28830606 -0.6918421 -0.79098636 -0.3419864
0.4099905 0.3043756 0.30948147 1.0750979 0.13951075 -0.23461749 0.6549687 -0.2380722

l1.bias f4 [8]
00000000: 0b8e 5c3f ac4a 5a3f 25a1 503f f271 3b3f
00000010: 2dda 813f 5350 783f 124a f83e 1f1f 893f
0.8615424 0.8527019 0.8149589 0.7322074 1.0144707 0.96997565 0.4849401 1.0712622

l2.weight f4 [8, 8]
00000000: 45a7 3cbf 006c 1540 b32d 0a3f 5ad1 993f
00000010: 3391 ce3f f0f8 69bf c33f cf3e 52ce 9bbe
00000020: 3645 ea3e f1ed e23e 569c 7f3f 2b54 c9bf
00000030: b4e0 223f e0d4 153e fc55 babe 72da f83f
00000040: c365 9ebe 1a83 853e 0f58 483e c061 a5be
00000050: e428 84be 4907 16be e16b 423e 9294 49be
00000060: 356d d33f ea4d 783f c6f9 87be 4734 b3bd
00000070: d8ee 2ebf 0679 e83f 8f71 193f f407 4bbf
00000080: da31 ef3e 6281 85bf 4959 673e cc63 9c3f
00000090: 9fa6 cbbe a2eb 9dbe 01e4 4a3f ca8f a73f
000000a0: a1d8 15bf afcc fcbe bf05 8dbe 5aa6 8d3f
000000b0: 81fb a43f 4003 f03e c9eb d33f 6b84 a43e
000000c0: 6b96 9d3f 98ee 8c3f d771 d03f 40f8 ad3f
000000d0: 8f03 6abf d464 9d3f c701 a2bf be3c 6d3f
000000e0: 6e7a 533e 2c84 9b3f 1cbc b3bd d64f aabf
000000f0: 59c3 c63f ffb1 d83f 6356 b13f d1a8 69be
-0.73692733 2.3347168 0.5397598 1.2017014 1.6138061 -0.91395473 0.40478334 -0.30430847
0.4575593 0.4432216 0.99847925 -1.5728811 0.6362412 0.14631987 -0.36393726 1.9441664
-0.30937013 0.26076585 0.19564842 -0.3230114 -0.25812447 -0.14651217 0.18986465 -0.19685581
1.6517702 0.9699389 -0.2655775 -0.087502055 -0.68333197 1.8161933 0.599389 -0.7930901
0.4671772 -1.043011 0.22592653 1.2217956 -0.3977556 -0.30843836 0.79254156 1.3090756
-0.58533674 -0.4937491 -0.27543446 1.1066391 1.2889253 0.4687748 1.6556331 0.32132277
1.2311529 1.1010313 1.6284741 1.3591385 -0.9141168 1.2296395 -1.2656792 0.9267081
0.20652172 1.2149711 -0.087761134 -1.3305614 1.5528365 1.692932 1.3854488 -0.22818305

l2.bias f4 [8]
00000000: d678 633d da00 493f 6c20 84be 7735 3c3e
00000010: 7b72 483f 4508 273f 232c 1a3f 2b8b 873f
0.05553516 0.78516924 -0.25805986 0.1837977 0.78299683 0.65246993 0.602236 1.0589346

l3.weight f4 [19, 8]
00000000: 46ee 36c0 7499 383f a9d6 943e 6033 2b3d
00000010: 6fd3 94bf db7c 51bf ca9c cf3e ce5d b73e
00000020: 8494 f8bf c2f7 6d3f 532c 943d 7b64 45c0
00000030: c5f3 553e b522 10bd 1a95 ce3c ec12 dc3e
00000040: 426d 0d3f 8688 063f 2cc1 39bd bc4d ebbf
00000050: 8a5d 38c0 46f7 0abd 5005 39bf 24e1 453f
00000060: 15eb 953f 90f2 d4bf ae53 a4be b8c2 ffbf
00000070: 154f adbf 5d6b c33e c8b6 41bf aa73 2b3e
00000080: d6ef 0abf ec3a 08be 4a3a 393e 2293 5e3f
00000090: 89d5 45c0 8e2b 07c0 d261 ab3d a815 073f
000000a0: f2eb d1be 68ea d93e 2094 a1bd f948 bebd
000000b0: 77f4 41bf b250 35bf 4d8b 7a3e 523c 82be
000000c0: bfb6 d0bd 9fcc 993e 1b00 063e 3174 44bf
000000d0: 7164 5e3d 1b37 9fbf 8e76 f53e 12fc 19c0
000000e0: 1767 1f3f 2a8c 16bf 241c 243e b0c5 b5bf
000000f0: 8d73 63bf be31 47bb 6f7f aa3e 8e44 55bf
00000100: 99e7 38c0 cb77 623f e6e6 d73c 29b4 60bf
00000110: 1c2a 1e3f a4d0 7cbf cbe1 f83e c570 9bbf
00000120: bc2a e03e d6c7 6d3f bc8f a3be 7f2e 3ec0
00000130: d53c 3ebf 7c56 e7be 4ad7 16be e04d 12bf
00000140: 8b48 ed3d 793d 6fbf 5a59 553e 7ead 603e
00000150: 0cc3 afbf fedf 46bd cdc0 c7bd 961b a13e
00000160: e5cc 68bf 7f97 293d 1277 6dbc 5946 06c0
00000170: a164 5e3f 1fa4 bd3e 004f 3b3e 4284 d2bf
00000180: 43e1 49be d68e 623e f97e bc3b 258b 253e
00000190: 0fb4 74bf db01 853e 580c 64bf 0e69 ae3e
000001a0: 9acc 9dbf 0c5b c5bf db8d 933e 5d09 dbbc
000001b0: 6c86 4a3f 5225 333f ba31 86bf 3710 433d
000001c0: 27a7 8f3e df7c cbbf 315d 07be 39a9 0cbf
000001d0: 0738 e3be b300 2b3f c898 08c0 6a89 003f
000001e0: c582 0abf 245a a93e f697 4a3e b57f 30c0
000001f0: a064 9d3e 1752 153f a82b 07c0 4cfe 263f
00000200: bb16 b43e 7236 04c0 8d71 91be 667f 32c0
00000210: 7f14 373f f958 123f b4a0 83be 7e4b 29bf
00000220: 1570 1ec0 8656 c0bf a3b9 6a3e 9ca3 f73e
00000230: 3f71 cdbf 3b1b 9bbe 9635 013f cedd 273f
00000240: ce14 0ac0 4266 90bf a907 3ebd 8571 f93d
00000250: 711c d83e f4ad 26be 0afd 033f 6e8f 38bf
-2.858293 0.7210915 0.29070023 0.041797042 -1.1627024 -0.8183114 0.40549308 0.35813755
-1.9420323 0.92956173 0.07235017 -3.0842578 0.20893772 -0.03518935 0.025217582 0.42983186
0.5524484 0.5255207 -0.04535024 -1.8383098 -2.8807092 -0.033927225 -0.7227373 0.7729666
1.1712366 -1.6636524 -0.32095093 -1.9981298 -1.3539759 0.3816785 -0.7566953 0.16743341
-0.5427221 -0.13303727 0.18088642 0.86943257 -3.0911582 -2.1120334 0.08368267 0.5276742
-0.41000324 0.4256165 -0.07889581 -0.09291262 -0.7576365 -0.70826256 0.24467202 -0.25436646
-0.10191106 0.30038926 0.13085978 -0.76739794 0.054295007 -1.2438692 0.47942013 -2.4060102
0.6226668 -0.58807623 0.1602636 -1.4200954 -0.8884819 -0.003039464 0.3330035 -0.8330773
-2.8891356 0.8846404 0.026355218 -0.877749 0.61783004 -0.9875586 0.48609766 -1.214379
0.43782604 0.9288305 -0.31945598 -2.971588 -0.7431157 -0.4518317 -0.14730564 -0.5715008
0.11586102 -0.93453175 0.20834866 0.21941182 -1.3731399 -0.04855346 -0.09753571 0.3146636
-0.90937644 0.041404244 -0.014493721 -2.0980437 0.868723 0.37039277 0.18291855 -1.6446612
-0.19714837 0.221248 0.005752441 0.1616636 -0.9558725 0.25977978 -0.89081335 0.34064525
-1.2328064 -1.541841 0.28819165 -0.026737863 0.7911136 0.6997882 -1.0483925 0.047622886
0.28057215 -1.5897483 -0.13219143 -0.54945713 -0.44378683 0.6679794 -2.134325 0.5020968
-0.5410579 0.33076584 0.19784531 -2.7577946 0.30740833 0.58328384 -2.1120396 0.65231776
0.35173592 -2.065823 -0.28406945 -2.7890258 0.7151565 0.5716701 -0.25708544 -0.66130817
-2.475591 -1.5026405 0.22922377 0.48367012 -1.6050185 -0.30294213 0.5047239 0.6557282
-2.1575198 -1.1281207 -0.046394024 0.12179855 0.422092 -0.16277295 0.5155798 -0.72093856

l3.bias f4 [19]
00000000: ff25 8abe 718a 483e da41 1e3f 9b0a e13d
00000010: e332 b2bd c2a9 2abc 7f67 23be 27c7 49bd
00000020: bfe7 bb3e 16f2 50be b825 a1be f0b5 f5be
00000030: 585b 383b 0d3e 6f3d 051d ae3d 205a cb3e
00000040: aca9 613e 16c4 503e dfaf 973e
-0.26982114 0.19584061 0.6181923 0.10988351 -0.08701112 -0.01041645 -0.1595745 -0.049262192
0.36700246 -0.20404848 -0.3147409 -0.4799037 0.0028130617 0.058408786 0.08501629 0.39717197
0.22037381 0.20387301 0.29626366
